Results/Training_4/servo_model.pth (torch_old, 127392 bytes, 7 tensors)

features.0.weight f4 [64, 3, 10, 10]
0.031581 0.0005282059 -0.06393621 0.046767764 -0.0045607314 0.036511667 -0.05794397 0.021412414
-0.046676498 0.028606856 0.045253783 0.034958445 0.006072802 0.017842738 -0.0080275405 0.011957212
-0.0055196485 -0.030580984 -0.010537341 0.029928666 -0.019222602 0.021999476 -0.04963574 0.016832806
-0.057778113 -0.0182633 -0.06514864 -0.06440429 0.0050954595 -0.0088889655 -0.014135642 -0.0069412715
0.04314672 -0.048685536 -0.049774565 0.017864067 0.042868186 -0.0297761 -0.027346784 0.025916537
-0.0030138984 0.045279764 -0.013900497 0.0131388595 -0.05528793 0.008104638 0.016530512 -0.024405446
0.01718231 -0.03463392 -0.012075304 0.016420823 -0.00036300905 0.051555578 -0.009744428 -0.00017608757
-0.032620374 0.00015400311 0.02382618 -0.07046473 -0.02583387 0.014143044 -0.03689201 0.0013761288
-0.06059063 0.04103707 -0.015001779 -0.057058576 0.023030011 -0.016805375 -0.015491467 0.015026724
0.028513337 0.026659794 0.023883091 -0.028929051 -0.0362249 0.020892456 -0.031686034 -0.04751273
0.043130457 0.024054453 -0.04824867 -0.02597016 -0.015467261 0.047081478 0.012169365 -0.025186887
0.013589685 -0.04052075 0.016364465 -0.00041379663 -0.013820389 -0.03261899 0.050785813 -0.01996054
-0.05579575 -0.0034781543 -0.06041901 0.026049567 0.023409162 0.019243762 -0.04489652 -0.013706273
0.021172738 -0.0073750964 0.032224838 0.036362436 0.013883896 -0.0052212058 -0.05371596 0.029467223
0.04000331 0.041240074 0.040257484 0.02516699 0.03587438 -0.055957247 -0.039639913 -0.004854909
-0.03897453 -0.0025251692 -0.005182899 0.029209074 -0.024188986 -0.059614252 -0.038853057 -0.013287539
0.013315641 -0.02613617 0.057428 -0.052218035 0.04707878 -0.040015914 0.04473051 0.022806088
-0.039191928 -0.008036653 0.0006402696 -0.06700488 0.014447619 -0.043777276 -0.05499497 -0.019064872
0.012623834 0.0012072066 -0.01855765 -0.0049781767 0.04200538 -0.031232687 -0.011725488 -0.01957546
0.0244555 -0.03428947 0.056620747 0.030049171 0.030131774 -0.06293797 0.009803939 -0.019801792
-0.0553664 0.04231166 0.008094691 0.050666995 -0.012834508 0.032626472 -0.041326568 -0.015914408
-0.024071638 -0.03692639 -0.016515749 -0.034056723 -0.02145795 0.04641149 0.05289801 0.008434289
-0.05023836 0.004530682 -0.022500264 -0.06543405 -0.037201762 0.007026689 -0.031064643 -0.02405288
0.014786819 -0.05746414 -0.010003397 -0.0336787 -0.04572728 -0.0427159 -0.0031162994 -0.0142958425
0.03840052 -0.038388636 -0.014384323 -0.0461643 -0.035595804 0.011821418 -0.06358509 0.039292883
-0.01035656 -0.06476695 0.02924437 0.0091171935 -0.056410287 0.011313101 0.028728059 -0.026642961
0.007838036 -0.032019712 -0.042267807 -0.027147174 0.04621798 0.013756358 0.0082368925 0.05330329
0.029643772 -0.046842415 0.023263417 -0.0031685745 0.03209043 -0.013163524 0.04744685 -0.03814887
0.016073383 -0.03542883 -0.024060735 0.011201571 0.03676637 -0.0663902 0.020290414 -0.027593797
0.051885087 -0.0046118516 0.006858779 -0.011510331 0.005325667 0.029135827 0.01497531 -0.042941615
0.041927263 -0.036410157 -0.036778558 0.018038655 0.038452927 -0.051853772 -0.01962733 -0.016108397
0.028637968 -0.057924867 -0.05975399 0.043802984 -0.0048111086 0.038451537 -0.025682481 -0.042335648
00000000: 145b 013d 4c77 0a3a fdf0 82bd 8e8f 3f3d
00000010: 3072 95bb 428d 153d a856 6dbd 1669 af3c
00000020: db2f 3fbd ed58 ea3c 085c 393d 9630 0f3d
00000030: 5bfe c63b ef2a 923c f285 03bc 2fe8 433c
00000040: 2bde b4bb f984 fabc d0a4 2cbc f62c f53c
00000050: b878 9dbc 3f38 b43c d94e 4bbd f4e4 893c
00000060: bea8 6cbd eb9c 95bc a66c 85bd 65e6 83bd
00000070: d0f7 a63b 06a3 11bc 2e99 67bc 9b73 e3bb
00000080: 9dba 303d 7c6a 47bd 6ae0 4bbd aa57 923c
00000090: 8d96 2f3d 02ed f3bc 5d06 e0bc eb4e d43c
000000a0: d384 45bb 4677 393d e9be 63bc 5f44 573c
000000b0: 9975 62bd 51c9 043c ff6a 873c eeed c7bc
000000c0: eac1 8c3c 4cdc 0dbd 7fd7 45bc f684 863c
000000d0: 4052 beb9 f12b 533d 18a7 1fbc 26a4 38b9
000000e0: f19c 05bd e57b 2139 1f2f c33c d04f 90bd
000000f0: 8da1 d3bc 3ab8 673c 141c 17bd 385f b43a
00000100: e12d 78bd 7d16 283d 06ca 75bc 41b6 69bd
00000110: 6fa9 bc3c 6dab 89bc eccf 7dbc a632 763c
00000120: cd94 e93c a465 da3c 79a6 c33c 9efc ecbc
00000130: 9060 14bd a826 ab3c 37c9 01bd b59c 42bd
00000140: 90a9 303d d80d c53c 66a0 45bd 5fbf d4bc
00000150: 656a 7dbc 82d8 403d 0462 473c bb54 cebc
00000160: 45a7 5e3c 16f9 25bd c50e 863c d8f2 d8b9
00000170: ea6e 62bc 7d9b 05bd c904 503d 4984 a3bc
00000180: 168a 64bd bff1 63bb ed79 77bd e765 d53c
00000190: 92c4 bf3c 18a5 9d3c 6ae5 37bd 4790 60bc
000001a0: 7372 ad3c cbaa f1bb 31fe 033d c7f0 143d
000001b0: 4879 633c a616 abbb 4405 5cbd 3f65 f13c
000001c0: 83da 233d 5aeb 283d 08e5 243d 012b ce3c
000001d0: 04f1 123d 6d33 65bd 765d 22bd ee15 9fbb
000001e0: c2a3 1fbd 4f7d 25bb 4fd5 a9bb de47 ef3c
000001f0: fb27 c6bc 132e 74bd 6224 1fbd fab3 59bc
00000200: d929 5a3c 851b d6bc 9f39 6b3d 94e2 55bd
00000210: aed5 403d bae7 23bd 5737 373d d5d3 ba3c
00000220: b787 20bd 2aac 03bc c4d7 273a db39 89bd
00000230: b5b5 6c3c cd4f 33bd 6842 61bd ef2d 9cbc
00000240: 33d4 4e3c 223b 9e3a 3606 98bc f91f a3bb
00000250: d50d 2c3d b1db ffbc 431c 40bc b75c a0bc
00000260: e756 c83c 1e73 0cbd 28eb 673d ae29 f63c
00000270: e9d6 f63c 9fe5 80bd b3a0 203c 5e37 a2bc
00000280: e1c7 62bd fe4e 2d3d 989f 043c 3288 4f3d
00000290: d447 52bc 56a3 053d 0c46 29bd ef5e 82bc
000002a0: e231 c5bc 2040 17bd 094c 87bc 107f 0bbd
000002b0: 95c8 afbc f919 3e3d 95ab 583d f92f 0a3c
000002c0: bdc6 4dbd 1e76 943b 7952 b8bc 4a02 86bd
000002d0: e060 18bd 2440 e63b 477b febc 8c0a c5bc
000002e0: 6a44 723c 855f 6bbd 4ae5 23bc adf2 09bd
000002f0: 874c 3bbd def6 2ebd d43a 4cbb 1c39 6abc
00000300: dd49 1d3d 673d 1dbd 39ac 6bbc c716 3dbd
00000310: e8cc 11bd 9fae 413c e638 82bd 93f1 203d
00000320: 90ae 29bc 89a4 84bd e491 ef3c 4860 153c
00000330: 790e 67bd 965a 393c 1b57 eb3c 5742 dabc
00000340: 1b6b 003c 1a27 03bd 0221 2dbd c063 debc
00000350: 114f 3d3d 5962 613c 08f4 063c 8d54 5a3d
00000360: 7fd7 f23c d5dd 3fbd ec92 be3c dca7 4fbb
00000370: 4171 033d d2ab 57bc a157 423d fd41 1cbd
00000380: 54ac 833c d21d 11bd 051b c5bc cb86 373c
00000390: 5598 163d 96f7 87bd 1538 a63c 630c e2bc
000003a0: 7585 543d 041f 97bb 9cbf e03b d495 3cbc
000003b0: ef82 ae3b 42ae ee3c 015b 753c 8ce3 2fbd
000003c0: ecbb 2b3d d122 15bd 1da5 16bd cdc5 933c
000003d0: d180 1d3d 9f64 54bd 7fc9 a0bc c2f5 83bc
000003e0: 2c9a ea3c a042 6dbd 9ac0 74bd c26a 333d
000003f0: 81a6 9dbb 5c7f 1d3d 1164 d2bc 2568 2dbd

features.0.bias f4 [64]
-0.0043737884 0.10412831 -0.024257008 0.28350398 0.009577819 0.030797852 0.042458855 0.03021392
0.034041636 -0.41748998 0.22728308 0.039402913 0.099031225 0.41110623 0.1138155 -0.73159003
0.023144688 0.08912733 -0.2430242 0.050847005 0.10921621 0.13496765 0.312798 0.071874596
0.15334216 0.42170677 0.092408 -0.1624126 0.14381228 -0.021534164 -0.023612086 0.016471766
0.10926909 0.11675354 0.08083429 -0.36621353 -0.049308036 -0.3692363 0.09917695 0.25086403
0.074877016 -0.16778842 -0.03832112 -0.029020457 -0.46877772 -0.063906886 0.06843143 -0.28163278
0.12919398 -0.005859136 0.0016786467 0.078432105 -0.037790395 0.10151033 -0.33505726 -0.051579382
-0.4088154 0.36482376 -0.050183125 0.015278765 -0.20104535 0.11801594 0.03297993 0.11015394
00000000: ff51 8fbb 3941 d53d a2b6 c6bc 6f27 913e
00000010: 49ec 1c3c c74b fc3c 56e9 2d3d 2f83 f73c
00000020: 3e6f 0b3d 3fc1 d5be e5bc 683e f364 213d
00000030: e2d0 ca3d 847c d23e 1a18 e93d 7c49 3bbf
00000040: ee99 bd3c 6488 b63d 56db 78be f344 503d
00000050: c0ac df3d f634 0a3e 0f27 a03e fd32 933d
00000060: ba05 1d3e f3e9 d73e 6840 bd3d 7d4f 26be
00000070: 8743 133e 6a68 b0bc 226e c1bc ccef 863c
00000080: 79c8 df3d 7b1c ef3d 738c a53d 5780 bbbe
00000090: 39f7 49bd 8a0c bdbe 491d cb3d 4071 803e
000000a0: 1f59 993d bad0 2bbe 9bf6 1cbd 4fbc edbc
000000b0: a203 f0be 9de1 82bd c725 8c3d 2c32 90be
000000c0: 6d4b 043e fffd bfbb 0906 dc3a 03a1 a03d
000000d0: 1aca 1abd a6e4 cf3d a08c abbe e744 53bd
000000e0: 4150 d1be 2eca ba3e d28c 4dbd c953 7a3c
000000f0: d5de 4dbe 57b2 f13d f715 073d 6498 e13d

features.3.weight f4 [10, 64, 3, 3]
-0.012009259 0.002953426 0.0172686 -0.009209739 0.02595161 0.018075185 0.034383763 0.03656886
0.028557112 -0.063286714 -0.058268033 -0.049507815 0.02392874 0.004068107 -0.04210697 -0.034661632
-0.01712517 -0.019855995 0.021875788 0.030748453 -0.012641942 0.03459129 -0.032059547 0.024252769
0.03605854 0.003455799 -0.0044998266 -0.030988682 -0.089832895 -0.017065397 -0.11899389 0.008879501
0.05385293 0.16419359 0.07982286 0.01963975 0.019480981 0.0445437 -0.07471086 -0.027535418
0.18477495 0.013291321 -0.12658055 0.052225832 -0.05960867 0.03248931 -0.037194584 -0.04008421
0.007378017 -0.024615586 0.026673662 -0.032898653 -0.025388157 0.014708991 -0.024610665 0.00059948897
-0.016244376 -0.03862673 0.004632117 -0.033018187 -0.012311902 -0.0043578167 -0.010756363 -0.027157582
-0.016172847 0.010287954 0.03453303 -0.00043089315 -0.030932248 -0.038894303 -0.0061847265 0.005271326
-0.001759953 0.03932666 0.026660936 -0.014659623 0.00896462 0.0053079533 -0.04139042 0.001702057
0.028552314 0.08422047 -0.019984964 0.095675915 0.024645368 0.016893797 0.014053835 0.09988209
-0.008621656 0.06765392 0.023250988 -0.13136604 0.0366417 0.15523854 0.32910135 0.0067665316
0.055377048 0.13824283 0.10400231 0.020074459 0.011405271 0.003690965 0.020646557 -0.04113052
0.023862306 -0.037922658 -0.018456569 0.0136743635 -0.07438892 0.21161424 -0.002307919 0.06522827
-0.10088149 -0.005797578 -0.022123324 0.0597395 0.030403003 -0.014601204 -0.14831458 -0.07090309
-0.027557317 0.21202606 0.08616173 0.037860006 0.16660783 0.089232095 -0.04108593 0.010558131
0.010405867 -0.013590886 -0.016814554 -0.0126224905 -0.02486094 0.029490527 0.023447767 -0.030607361
-0.038095575 -0.02762772 0.045881975 -0.00820958 -0.033198826 -0.12266735 -0.06686167 -0.05479109
-0.021642854 -0.014013886 -0.0107686985 -0.020312369 0.020323332 -0.015427861 0.011054696 -0.016890775
-0.03781411 -0.022637662 0.03361641 0.011137897 0.022502212 -0.030977054 0.032390695 0.023876118
-0.004265958 -0.024551125 -0.00068974425 0.03470356 0.14072174 0.17793699 0.026195012 0.014849208
0.15038753 -0.008824845 0.0560814 -0.026625955 0.002839686 -0.016505305 0.011079492 -0.005421352
-0.016971031 0.04178419 0.053112518 0.027687877 -0.013404821 0.0016248301 -0.017609173 -0.031210728
-0.0008021833 0.0069433046 0.0016547387 0.024896866 -0.007585947 -0.024249665 0.009736249 0.014577852
-0.031870972 -0.033643678 0.030192018 0.0030813513 0.0012680736 0.021867432 0.045987427 -0.0077763842
0.05104259 0.026816161 0.030227646 0.017039582 0.020463195 0.081354566 0.0498925 -0.024781208
0.047391098 0.045539998 0.037300073 -0.018661324 0.025863327 -0.006578823 -0.008572908 -0.0061991108
0.05085892 0.035651732 -0.069104634 0.104648724 -0.027228286 0.020156967 0.068758525 -0.047402557
-0.13001612 0.02452124 -0.016216574 0.0864943 0.03656031 -0.062437795 -0.0046519334 0.00047805673
0.062396295 -0.008583604 0.022481956 0.011457998 0.02388672 0.029014336 0.040096927 0.011166095
-0.0094179865 -0.028065044 0.017247684 0.005866076 -0.1432184 0.13951637 -0.16880952 -0.1926372
-0.07447732 -0.0082306005 -0.06113819 0.26573566 -0.013552492 -0.023835 -0.042254515 0.00045823533
00000000: 7cc2 44bc 448e 413b e176 8d3c 72e4 16bc
00000010: 7998 d43c 6912 943c fdd5 0c3d 3bc9 153d
00000020: 9bf0 e93c 779c 81bd 76aa 6ebd b5c8 4abd
00000030: 3406 c43c c14d 853b 5c78 2cbd 5bf9 0dbd
00000040: 164a 8cbc 0aa9 a2bc da34 b33c 2ee4 fb3c
00000050: 2620 4fbc 99af 0d3d df50 03bd bead c63c
00000060: 1fb2 133d b07a 623b 4873 93bb fadb fdbc
00000070: 4ffa b7bd bbcc 8bbc 12b3 f3bd 547b 113c
00000080: e494 5c3d 5d22 283e 2b7a a33d 8ae3 a03c
00000090: 9496 9f3c 7473 363d 0202 99bd f591 e1bc
000000a0: a535 3d3e d7c3 593c 559e 01be c1ea 553d
000000b0: 3928 74bd 8313 053d 5959 18bd 572f 24bd
000000c0: 4bc3 f13b a0a6 c9bc b982 da3c bdc0 06bd
000000d0: d3fa cfbc fbfd 703c 4e9c c9bc 0627 1d3a
000000e0: ed12 85bc 1037 1ebd 04c9 973b 143e 07bd
000000f0: dcb7 49bc 04cc 8ebb 753b 30bc 9479 debc
00000100: eb7c 84bc ce8e 283c 8272 0d3d 80e9 e1b9
00000110: a065 fdbc a24f 1fbd 3fa9 cabb 16bb ac3b
00000120: 39ae e6ba fe14 213d 0968 da3c ea2e 70bc
00000130: 57e0 123c 57ee ad3b 0089 29bd 8e17 df3a
00000140: 8be6 e93c c87b ac3d 82b7 a3bc bcf1 c33d
00000150: 15e5 c93c dc64 8a3c 0e42 663c fb8e cc3d
00000160: d941 0dbc 238e 8a3d db78 be3c d284 06be
00000170: 9b15 163d daf6 1e3e f97f a83e c8b9 dd3b
00000180: 0bd3 623d 878f 0d3e 2aff d43d 3173 a43c
00000190: 2cdd 3a3c 1ee4 713b f822 a93c 7a78 28bd
000001a0: e27a c33c ca54 1bbd 3b32 97bc 700a 603c
000001b0: 3859 98bd 67b1 583e 7540 17bb 6696 853d
000001c0: f49a cebd 9cf9 bdbb f93b b5bc 68b1 743d
000001d0: b80f f93c e339 6fbc c7df 17be a435 91bd
000001e0: e2bf e1bc 5c1d 593e 9075 b03d 1813 1b3d
000001f0: 3e9b 2a3e 51bf b63d b849 28bd 03fc 2c3c
00000200: 5f7d 2a3c 4fac 5ebc adbe 89bc 90ce 4ebc
00000210: 2ca9 cbbc 1e96 f13c 8815 c03c 4abc fabc
00000220: 1b0a 1cbd 8753 e2bc bdee 3b3d 7981 06bc
00000230: 7efb 07bd 0539 fbbd c5ee 88bd 9f6c 60bd
00000240: 5b4c b1bc 809a 65bc 326f 30bc 2066 a6bc
00000250: 1e7d a63c 24c5 7cbc c11e 353c 865e 8abc
00000260: f8e2 1abd 9e72 b9bc 5cb1 093d ba7b 363c
00000270: 8f56 b83c 97c3 fdbc 1bac 043d d997 c33c
00000280: 73c9 8bbb 711f c9bc f4cf 34ba 5225 0e3d
00000290: 5c19 103e 1d35 363e ec96 d63c 184a 733c
000002a0: 30ff 193e 1596 10bc 9cb5 653d ad1e dabc
000002b0: 071a 3a3b 2236 87bc c286 353c 99a5 b1bb
000002c0: d506 8bbc e625 2b3d 838c 593d b0d1 e23c
000002d0: e59f 5bbc 40f8 d43a 1d41 90bc a4ad ffbc
000002e0: 9c49 52ba a984 e33b d1e3 d83a 83f4 cb3c
000002f0: 8993 f8bb 3ca7 c6bc ca84 1f3c f1d7 6e3c
00000300: 238b 02bd f4cd 09bd 4055 f73c 7ff0 493b
00000310: 7d35 a63a 5423 b33c 505d 3c3d 0ad1 febb
00000320: 0912 513d 91ad db3c f89f f73c 9896 8b3c
00000330: 6ea2 a73c 399d a63d 145c 4c3d f601 cbbc
00000340: 2b1d 423d 2688 3a3d f6c7 183d a2df 98bc
00000350: 54df d33c 2b93 d7bb 6275 0cbc e921 cbbb
00000360: 7151 503d 8d07 123d bb86 8dbd 1252 d63d
00000370: db0d dfbc 3920 a53c 45d1 8c3d 2f29 42bd
00000380: f222 05be c4e0 c83c 9fd8 84bc ec23 b13d
00000390: 43c0 153d c6be 7fbd 3f6f 98bb b0a3 fa39
000003a0: 4293 7f3d 3fa2 0cbc 142c b83c 54ba 3b3c
000003b0: 15ae c33c 79af ed3c ad3c 243d fff1 363c
000003c0: e64d 1abc aae8 e5bc 044b 8d3c 3638 c03b
000003d0: d8a7 12be 61dd 0e3e 67dc 2cbe b042 45be
000003e0: 9187 98bd a4d9 06bc 0a6c 7abd 810e 883e
000003f0: 450b 5ebc 9e41 c3bc 1213 2dbd 4e3f f039

features.3.bias f4 [10]
-0.04290456 -0.02993739 0.049316496 0.029239714 0.05757669 0.047651354 0.048960224 -0.026114302
-0.024893325 0.007773713
00000000: b1bc 2fbd 423f f5bc 1800 4a3d 2088 ef3c
00000010: 89d5 6b3d 112e 433d 848a 483d a9ed d5bc
00000020: 16ed cbbc a2ba fe3b

classifier.0.weight f4 [10, 640]
-0.037234742 0.055997834 -0.0036546134 -0.048750672 -0.0709376 -0.0063762846 0.028230218 0.04566201
-0.011222308 -0.038073212 -0.01800659 -0.041294057 0.03130649 -0.034788314 0.016031332 0.05036662
-0.02418799 -0.020831846 -0.048657656 0.04057712 0.014432357 -0.04022407 0.017853118 -0.029588075
0.044050734 -0.016473794 0.018447695 0.008987097 0.0073585426 0.019451143 0.00089737354 -0.036541454
-0.06351615 -0.04750654 -0.02262103 -0.017302958 -0.0035744999 -0.04585945 -0.019315423 0.03261502
-0.050491262 -0.052902173 -0.0077290493 0.031090107 0.023387892 0.0028905445 0.02966687 0.002943589
-0.013227402 0.013896259 0.025306452 -0.030287798 0.0036605683 -0.00054439704 0.027666023 0.026297413
-0.075968064 -0.04680513 -0.038064174 -0.065572664 0.016285907 0.011423177 -0.03962573 0.024132548
-0.013182776 -0.015978 0.035177693 -0.034241818 0.022580178 -0.028195677 0.03568322 -0.052070424
-0.006803495 -0.00512521 -0.066145256 0.012144968 -0.027225716 0.016785076 0.06779271 -0.090667084
0.0011505956 -0.012000286 0.027406408 -0.027690375 -0.041623745 -0.016805854 0.014341617 -0.041472692
-0.02013075 0.033410754 0.04227658 0.03782905 0.015625713 0.010508396 0.0041480125 0.017587781
-0.015336319 0.055495344 0.022433084 -0.0074441265 -0.026397398 -0.021761574 -0.017907316 0.054865256
0.022218026 -0.028687373 -0.014744006 0.011438344 -0.06789513 -0.00090543955 -0.044996623 -0.020273259
0.0458089 0.01615427 0.062773064 -0.009237854 0.006765882 0.054738194 0.06276247 0.028510042
-0.015688017 0.019082373 0.09618483 0.020872638 0.06830723 0.089099176 0.01007206 0.044176586
-0.050942745 -0.019186111 -0.04065503 -0.039546307 0.06256281 0.050590448 0.023351178 -0.007211611
0.047233567 0.05573012 0.04037355 0.020888638 0.0032709602 0.002030347 -0.048138153 0.024049003
0.0363938 0.0017141858 -0.034903053 -0.005132654 0.042291205 -0.00024220144 0.031494696 0.02858245
-0.0016530758 0.016595917 0.0050512226 -0.02158391 0.0070631728 0.046394307 0.017512867 -0.0072579035
-0.0046230797 -0.008199523 0.008795969 0.022766475 -0.006554484 0.011484432 0.00022055047 -0.0134936245
-0.051526256 -0.039621226 -0.05450698 -0.013174272 0.0047328803 -0.021813296 0.027433455 -0.056416284
-0.011344863 0.0071234065 -0.043115105 -0.019670114 -0.010508918 -0.025772357 -0.02804491 -0.031291887
-0.0059825005 0.03907025 0.015397916 -0.035734158 -0.045867376 -0.03361754 -0.07087443 -0.03142053
0.05727357 -0.0128545305 -0.011494065 -0.007090347 0.0057041203 -0.0041218977 -0.03351574 0.027721949
0.035671618 -0.026856247 -0.026442684 -0.0125339385 -0.01995794 -0.008956568 0.05143938 -0.023389073
0.011998836 0.0040711933 0.004243364 -0.059228197 -0.035200235 -0.009106559 0.039552543 -0.09365305
-0.021779994 -0.029294385 -0.03953184 -0.04292547 -0.0016194026 0.048597503 0.0060184835 -0.025844544
-0.041752513 -0.03135839 -0.0021600896 -0.0063019106 0.0011198306 -0.0344362 -0.038180523 0.012575243
0.0011014411 -0.0010785919 -0.035038877 0.024618678 -0.04840287 0.03543385 0.022182921 0.01722415
-0.0033686121 -0.0095630195 -0.015754726 -0.04584907 -0.010156853 0.026684903 -0.010402939 -0.025757173
-0.05616198 0.019967286 0.006899325 0.032555945 -0.023962732 0.021543846 0.04026937 0.0018270734
00000000: 7583 18bd fc5d 653d 3d82 6fbb c9ae 47bd
00000010: bc47 91bd 27f0 d0bb 0f43 e73c 1608 3b3d
00000020: c5dd 37bc a8f2 1bbd 8e82 93bc f523 29bd
00000030: 3c3b 003d 317e 0ebd 2454 833c 3b4d 4e3d
00000040: e425 c6bc 8ca7 aabc 404d 47bd 3234 263d
00000050: b175 6c3c ffc1 24bd b440 923c b162 f2bc
00000060: 8b6e 343d 0df4 86bc 9f1f 973c 9e3e 133c
00000070: ee1f f13b 0158 9f3c b83d 6b3a 7eac 15bd
00000080: c114 82bd 3896 42bd bd4f b9bc efbe 8dbc
00000090: 2842 6abb 1ed7 3bbd 613b 9ebc 5497 053d
000000a0: edcf 4ebd f3af 58bd f743 fdbb aeb0 fe3c
000000b0: f797 bf3c 4a6f 3d3b f007 f33c 3ae9 403b
000000c0: bfb7 58bc 22ad 633c 7a4f cf3c 1e1e f8bc
000000d0: 25e6 6f3b deb5 0eba dba3 e23c ac6d d73c
000000e0: 2595 9bbd bcb6 3fbd 2ee9 1bbd f64a 86bd
000000f0: 066a 853c 4728 3b3c 974e 22bd 9fb1 c53c
00000100: 92fc 57bc 4be4 82bc 7c16 103d 2641 0cbd
00000110: 11fa b83c 9ffa e6bc 9128 123d cc47 55bd
00000120: daef debb 61f1 a7bb 2a77 87bd b0fb 463c
00000130: 7708 dfbc db80 893c e8d6 8a3d aaaf b9bd
00000140: 95cf 963a d99c 44bc 6783 e03c edd6 e2bc
00000150: a97d 2abd 6eac 89bc 1af9 6a3c 45df 29bd
00000160: 3ee9 a4bc b7d9 083d 352a 2d3d a2f2 1a3d
00000170: 7f01 803c 682b 2c3c 0dec 873b 4014 903c
00000180: 2f45 7bbc 164f 633d 96c5 b73c dced f3bb
00000190: 5b3f d8bc 5445 b2bc 5db2 92bc 64ba 603d
000001a0: 9402 b63c c801 ebbc d890 71bc e467 3b3c
000001b0: 9a0c 8bbd 055b 6dba 614e 38bd 1b14 a6bc
000001c0: 1da2 3b3d f655 843c 2a8f 803d 5e5a 17bc
000001d0: 55b4 dd3b 2835 603d 9c89 803d e48d e93c
000001e0: 2884 80bc a352 9c3c 8dfc c43d 18fd aa3c
000001f0: a9e4 8b3d a179 b63d 4805 253c 82f2 343d
00000200: 57a9 50bd 312c 9dbc e485 26bd 4ffb 21bd
00000210: ee20 803d ee37 4f3d f84a bf3c 614f ecbb
00000220: fc77 413d 4445 643d bc5e 253d a61e ab3c
00000230: 9b5d 563b 920f 053b 832c 45bd 6a02 c53c
00000240: aa11 153d 88ae e03a 81f6 0ebd d32f a8bb
00000250: 8b39 2d3d 74f7 7db9 9500 013d be25 ea3c
00000260: 05ac d8ba 29f4 873c ba84 a53b bdd0 b0bc
00000270: 3072 e73b f507 3e3d 2577 8f3c b5d3 edbb
00000280: 347d 97bb 4b57 06bc f81c 103c c280 ba3c
00000290: ffc6 d6bb 3329 3c3c 9143 6739 5d14 5dbc
000002a0: 320d 53bd de49 22bd b642 5fbd e7d8 57bc
000002b0: 4716 9b3b ccb1 b2bc 20bc e03c c314 67bd
000002c0: cedf 39bc 776b e93b 7799 30bd 3823 a1bc
000002d0: 992d 2cbc 8d20 d3bc 70be e5bc ec2b 00bd
000002e0: da08 c4bb 2008 203d 8a47 7c3c fb5d 12bd
000002f0: 6edf 3bbd 8cb2 09bd 9d26 91bd d0b2 00bd
00000300: b197 6a3d cf9b 52bc 9a51 3cbc 2456 e8bb
00000310: a1e9 ba3b fc10 87bb cd47 09bd 2419 e33c
00000320: 671c 123d a201 dcbc 549e d8bc 265b 4dbc
00000330: d57e a3bc 92be 12bc 19b2 523d 719a bfbc
00000340: c496 443c a567 853b eb0b 8b3b 4499 72bd
00000350: 1f2e 10bd ad33 15bc d901 223d 2ccd bfbd
00000360: f56b b2bc c7fa efbc 23ec 21bd 9ed2 2fbd
00000370: 2242 d4ba 2d0e 473d b336 c53b f0b7 d3bc
00000380: af04 2bbd a871 00bd 4a90 0dbb 4280 cebb
00000390: 48c7 923a f90c 0dbd 2e63 1cbd 6408 4e3c
000003a0: 3b5e 903a 8a5f 8dba ed84 0fbd 1cad c93c
000003b0: 1642 46bd 1623 113d f5b8 b53c a919 8d3c
000003c0: efc3 5cbb 36ae 1cbc 0e10 81bc 3ccc 3bbd
000003d0: ee68 26bc 4c9a da3c 1771 2abc b500 d3bc
000003e0: 1b0a 66bd 6f92 a33c bc13 e23b 6259 053d
000003f0: 7e4d c4bc b87c b03c 7ff1 243d 697a ef3a

classifier.0.bias f4 [10]
2.1931841 -2.2827566 -2.201849 -2.1535087 2.177522 -2.2730138 -2.1882582 2.1869857
-2.1675293 -2.1413639
00000000: 215d 0c40 af18 12c0 18eb 0cc0 16d3 09c0
00000010: 855c 0b40 0f79 11c0 6c0c 0cc0 93f7 0b40
00000020: cdb8 0ac0 1b0c 09c0

classifier.1.weight f4 [1, 10]
0.44377983 -0.8101876 -0.48314044 -0.5861396 0.61934584 -0.56424516 -0.6577011 0.62829024
-0.4421418 -0.49042642
00000000: 1c37 e33e 7468 4fbf 2f5e f7be 3f0d 16bf
00000010: 738d 1e3f 5f72 10bf 195f 28bf a1d7 203f
00000020: 6960 e2be 2c19 fbbe
