Results/Training_2/servo_model.pth (torch_old, 127392 bytes, 7 tensors)

features.0.weight f4 [64, 3, 10, 10]
0.031581 0.0005282059 -0.06393621 0.046767764 -0.0045607314 0.036511667 -0.05794397 0.021412414
-0.046676498 0.028606856 0.045253783 0.034958445 0.006072802 0.017842738 -0.0080275405 0.011957212
-0.0055196485 -0.030580984 -0.010537341 0.029928666 -0.019222602 0.021999476 -0.04963574 0.016832806
-0.057778113 -0.0182633 -0.06514864 -0.06440429 0.0050954595 -0.0088889655 -0.014135642 -0.0069412715
0.04314672 -0.048685536 -0.049774565 0.017864067 0.042868186 -0.0297761 -0.027346784 0.025916537
-0.0030138984 0.045279764 -0.013900497 0.0131388595 -0.05528793 0.008104638 0.016530512 -0.024405446
0.01718231 -0.03463392 -0.012075304 0.016420823 -0.00036300905 0.051555578 -0.009744428 -0.00017608757
-0.032620374 0.00015400311 0.02382618 -0.07046473 -0.02583387 0.014143044 -0.03689201 0.0013761288
-0.06059063 0.04103707 -0.015001779 -0.057058576 0.023030011 -0.016805375 -0.015491467 0.015026724
0.028513337 0.026659794 0.023883091 -0.028929051 -0.0362249 0.020892456 -0.031686034 -0.04751273
0.043130457 0.024054453 -0.04824867 -0.02597016 -0.015467261 0.047081478 0.012169365 -0.025186887
0.013589685 -0.04052075 0.016364465 -0.00041379663 -0.013820389 -0.03261899 0.050785813 -0.01996054
-0.05579575 -0.0034781543 -0.06041901 0.026049567 0.023409162 0.019243762 -0.04489652 -0.013706273
0.021172738 -0.0073750964 0.032224838 0.036362436 0.013883896 -0.0052212058 -0.05371596 0.029467223
0.04000331 0.041240074 0.040257484 0.02516699 0.03587438 -0.055957247 -0.039639913 -0.004854909
-0.03897453 -0.0025251692 -0.005182899 0.029209074 -0.024188986 -0.059614252 -0.038853057 -0.013287539
0.013315641 -0.02613617 0.057428 -0.052218035 0.04707878 -0.040015914 0.04473051 0.022806088
-0.039191928 -0.008036653 0.0006402696 -0.06700488 0.014447619 -0.043777276 -0.05499497 -0.019064872
0.012623834 0.0012072066 -0.01855765 -0.0049781767 0.04200538 -0.031232687 -0.011725488 -0.01957546
0.0244555 -0.03428947 0.056620747 0.030049171 0.030131774 -0.06293797 0.009803939 -0.019801792
-0.0553664 0.04231166 0.008094691 0.050666995 -0.012834508 0.032626472 -0.041326568 -0.015914408
-0.024071638 -0.03692639 -0.016515749 -0.034056723 -0.02145795 0.04641149 0.05289801 0.008434289
-0.05023836 0.004530682 -0.022500264 -0.06543405 -0.037201762 0.007026689 -0.031064643 -0.02405288
0.014786819 -0.05746414 -0.010003397 -0.0336787 -0.04572728 -0.0427159 -0.0031162994 -0.0142958425
0.03840052 -0.038388636 -0.014384323 -0.0461643 -0.035595804 0.011821418 -0.06358509 0.039292883
-0.01035656 -0.06476695 0.02924437 0.0091171935 -0.056410287 0.011313101 0.028728059 -0.026642961
0.007838036 -0.032019712 -0.042267807 -0.027147174 0.04621798 0.013756358 0.0082368925 0.05330329
0.029643772 -0.046842415 0.023263417 -0.0031685745 0.03209043 -0.013163524 0.04744685 -0.03814887
0.016073383 -0.03542883 -0.024060735 0.011201571 0.03676637 -0.0663902 0.020290414 -0.027593797
0.051885087 -0.0046118516 0.006858779 -0.011510331 0.005325667 0.029135827 0.01497531 -0.042941615
0.041927263 -0.036410157 -0.036778558 0.018038655 0.038452927 -0.051853772 -0.01962733 -0.016108397
0.028637968 -0.057924867 -0.05975399 0.043802984 -0.0048111086 0.038451537 -0.025682481 -0.042335648
00000000: 145b 013d 4c77 0a3a fdf0 82bd 8e8f 3f3d
00000010: 3072 95bb 428d 153d a856 6dbd 1669 af3c
00000020: db2f 3fbd ed58 ea3c 085c 393d 9630 0f3d
00000030: 5bfe c63b ef2a 923c f285 03bc 2fe8 433c
00000040: 2bde b4bb f984 fabc d0a4 2cbc f62c f53c
00000050: b878 9dbc 3f38 b43c d94e 4bbd f4e4 893c
00000060: bea8 6cbd eb9c 95bc a66c 85bd 65e6 83bd
00000070: d0f7 a63b 06a3 11bc 2e99 67bc 9b73 e3bb
00000080: 9dba 303d 7c6a 47bd 6ae0 4bbd aa57 923c
00000090: 8d96 2f3d 02ed f3bc 5d06 e0bc eb4e d43c
000000a0: d384 45bb 4677 393d e9be 63bc 5f44 573c
000000b0: 9975 62bd 51c9 043c ff6a 873c eeed c7bc
000000c0: eac1 8c3c 4cdc 0dbd 7fd7 45bc f684 863c
000000d0: 4052 beb9 f12b 533d 18a7 1fbc 26a4 38b9
000000e0: f19c 05bd e57b 2139 1f2f c33c d04f 90bd
000000f0: 8da1 d3bc 3ab8 673c 141c 17bd 385f b43a
00000100: e12d 78bd 7d16 283d 06ca 75bc 41b6 69bd
00000110: 6fa9 bc3c 6dab 89bc eccf 7dbc a632 763c
00000120: cd94 e93c a465 da3c 79a6 c33c 9efc ecbc
00000130: 9060 14bd a826 ab3c 37c9 01bd b59c 42bd
00000140: 90a9 303d d80d c53c 66a0 45bd 5fbf d4bc
00000150: 656a 7dbc 82d8 403d 0462 473c bb54 cebc
00000160: 45a7 5e3c 16f9 25bd c50e 863c d8f2 d8b9
00000170: ea6e 62bc 7d9b 05bd c904 503d 4984 a3bc
00000180: 168a 64bd bff1 63bb ed79 77bd e765 d53c
00000190: 92c4 bf3c 18a5 9d3c 6ae5 37bd 4790 60bc
000001a0: 7372 ad3c cbaa f1bb 31fe 033d c7f0 143d
000001b0: 4879 633c a616 abbb 4405 5cbd 3f65 f13c
000001c0: 83da 233d 5aeb 283d 08e5 243d 012b ce3c
000001d0: 04f1 123d 6d33 65bd 765d 22bd ee15 9fbb
000001e0: c2a3 1fbd 4f7d 25bb 4fd5 a9bb de47 ef3c
000001f0: fb27 c6bc 132e 74bd 6224 1fbd fab3 59bc
00000200: d929 5a3c 851b d6bc 9f39 6b3d 94e2 55bd
00000210: aed5 403d bae7 23bd 5737 373d d5d3 ba3c
00000220: b787 20bd 2aac 03bc c4d7 273a db39 89bd
00000230: b5b5 6c3c cd4f 33bd 6842 61bd ef2d 9cbc
00000240: 33d4 4e3c 223b 9e3a 3606 98bc f91f a3bb
00000250: d50d 2c3d b1db ffbc 431c 40bc b75c a0bc
00000260: e756 c83c 1e73 0cbd 28eb 673d ae29 f63c
00000270: e9d6 f63c 9fe5 80bd b3a0 203c 5e37 a2bc
00000280: e1c7 62bd fe4e 2d3d 989f 043c 3288 4f3d
00000290: d447 52bc 56a3 053d 0c46 29bd ef5e 82bc
000002a0: e231 c5bc 2040 17bd 094c 87bc 107f 0bbd
000002b0: 95c8 afbc f919 3e3d 95ab 583d f92f 0a3c
000002c0: bdc6 4dbd 1e76 943b 7952 b8bc 4a02 86bd
000002d0: e060 18bd 2440 e63b 477b febc 8c0a c5bc
000002e0: 6a44 723c 855f 6bbd 4ae5 23bc adf2 09bd
000002f0: 874c 3bbd def6 2ebd d43a 4cbb 1c39 6abc
00000300: dd49 1d3d 673d 1dbd 39ac 6bbc c716 3dbd
00000310: e8cc 11bd 9fae 413c e638 82bd 93f1 203d
00000320: 90ae 29bc 89a4 84bd e491 ef3c 4860 153c
00000330: 790e 67bd 965a 393c 1b57 eb3c 5742 dabc
00000340: 1b6b 003c 1a27 03bd 0221 2dbd c063 debc
00000350: 114f 3d3d 5962 613c 08f4 063c 8d54 5a3d
00000360: 7fd7 f23c d5dd 3fbd ec92 be3c dca7 4fbb
00000370: 4171 033d d2ab 57bc a157 423d fd41 1cbd
00000380: 54ac 833c d21d 11bd 051b c5bc cb86 373c
00000390: 5598 163d 96f7 87bd 1538 a63c 630c e2bc
000003a0: 7585 543d 041f 97bb 9cbf e03b d495 3cbc
000003b0: ef82 ae3b 42ae ee3c 015b 753c 8ce3 2fbd
000003c0: ecbb 2b3d d122 15bd 1da5 16bd cdc5 933c
000003d0: d180 1d3d 9f64 54bd 7fc9 a0bc c2f5 83bc
000003e0: 2c9a ea3c a042 6dbd 9ac0 74bd c26a 333d
000003f0: 81a6 9dbb 5c7f 1d3d 1164 d2bc 2568 2dbd

features.0.bias f4 [64]
-0.0043737884 0.10412831 -0.024257008 0.24378917 -0.0021821195 0.030797852 0.042458855 0.03021392
0.034041636 -0.2614407 0.15786028 0.039402913 0.08741443 0.24841696 0.1138155 -0.50919044
0.023144688 0.08912733 -0.1427395 0.050847005 0.10921621 0.13496765 0.31850615 0.071874596
0.10371743 0.2892666 0.092408 -0.15494241 0.14381228 -0.021534164 -0.023612086 0.016471766
0.10926909 0.10310093 0.08083429 -0.2137481 -0.06989477 -0.22162484 0.09917695 0.1944002
0.070951335 0.0026081456 -0.03832112 -0.029020457 -0.3194802 -0.022151789 0.09206464 -0.10774914
0.12919398 0.01726941 0.0016786467 0.078432105 -0.037790395 0.10151033 -0.117111 -0.051579382
-0.3030382 0.30397144 -0.050183125 0.015278765 -0.03775547 0.11801594 0.03297993 0.039799623
00000000: ff51 8fbb 3941 d53d a2b6 c6bc dea3 793e
00000010: e401 0fbb c74b fc3c 56e9 2d3d 2f83 f73c
00000020: 3e6f 0b3d 8edb 85be 20a6 213e f364 213d
00000030: 5606 b33d 0461 7e3e 1a18 e93d 4e5a 02bf
00000040: ee99 bd3c 6488 b63d 4e2a 12be f344 503d
00000050: c0ac df3d f634 0a3e 3d13 a33e fd32 933d
00000060: ce69 d43d c01a 943e 6840 bd3d 39a9 1ebe
00000070: 8743 133e 6a68 b0bc 226e c1bc ccef 863c
00000080: 79c8 df3d 9526 d33d 738c a53d c8e0 5abe
00000090: fd24 8fbd 9ff1 62be 491d cb3d d910 473e
000000a0: ef4e 913d 6ced 2a3b 9bf6 1cbd 4fbc edbc
000000b0: e992 a3be ab77 b5bc 638c bc3d 95ab dcbd
000000c0: 6d4b 043e 9478 8d3c 0906 dc3a 03a1 a03d
000000d0: 1aca 1abd a6e4 cf3d e4d7 efbd e744 53bd
000000e0: d327 9bbe 25a2 9b3e d28c 4dbd c953 7a3c
000000f0: 7ba5 1abd 57b2 f13d f715 073d ee04 233d

features.3.weight f4 [10, 64, 3, 3]
-0.012009259 0.002953426 0.0172686 -0.009209739 0.02595161 0.018075185 0.034383763 0.03656886
0.028557112 -0.063286714 -0.058268033 -0.049507815 0.02392874 0.004068107 -0.04210697 -0.034661632
-0.01712517 -0.019855995 0.021875788 0.030748453 -0.012641942 0.03459129 -0.032059547 0.024252769
0.03605854 0.003455799 -0.0044998266 -0.06116531 -0.072644845 -0.011704777 -0.11785445 0.028677812
0.03414849 0.13190018 0.14118828 0.013634717 0.009206123 0.0435648 -0.057178125 -0.029541072
0.14419231 0.04818309 -0.0654205 0.04006096 -0.074888185 0.03248931 -0.037194584 -0.04008421
0.007378017 -0.024615586 0.026673662 -0.032898653 -0.025388157 0.014708991 -0.024610665 0.00059948897
-0.016244376 -0.03862673 0.004632117 -0.033018187 -0.012311902 -0.0043578167 -0.010756363 -0.027157582
-0.016172847 0.010287954 0.03453303 -0.00043089315 -0.030932248 -0.038894303 -0.0061847265 0.005271326
-0.001759953 0.03932666 0.026660936 -0.014659623 0.00896462 0.0053079533 -0.04139042 0.001702057
0.028552314 0.059031386 -0.0022430636 0.087171584 0.048940685 0.032920748 -0.0012806746 0.08615903
0.007993749 0.030918235 0.029762454 -0.13704501 0.0021439278 0.1816771 0.30190015 0.0011716585
0.008405655 0.060897008 0.12118301 0.020074459 0.011405271 0.003690965 0.020646557 -0.04113052
0.023862306 -0.037922658 -0.018456569 0.0136743635 -0.07083325 0.1684572 -0.022593452 0.0045686434
-0.026964007 -0.00042155315 -0.0042883125 0.024600096 0.042707287 -0.012887185 -0.05745153 0.0040976754
-0.026845044 0.08620545 0.058876906 0.057912108 0.09837129 0.09752045 -0.04108593 0.010558131
0.010405867 -0.013590886 -0.016814554 -0.0126224905 -0.02486094 0.029490527 0.023447767 -0.028404929
-0.025859458 -0.009391228 0.029645972 -0.020694146 -0.02593717 -0.0931661 0.035735782 -0.048881598
-0.021642854 -0.014013886 -0.0107686985 -0.020312369 0.020323332 -0.015427861 0.011054696 -0.016890775
-0.03781411 -0.022637662 0.03361641 0.011137897 0.022502212 -0.030977054 0.032390695 0.023876118
-0.004265958 -0.024551125 0.009981598 0.046691373 0.14639437 0.13832356 0.0054374216 -0.0083570015
0.108126126 0.0040146853 0.021726474 -0.026625955 0.002839686 -0.016505305 0.011079492 -0.005421352
-0.016971031 0.04178419 0.053112518 0.027687877 -0.013404821 0.0016248301 -0.017609173 -0.031210728
-0.0008021833 0.0069433046 0.0016547387 0.024896866 -0.007585947 -0.024249665 0.009736249 0.014577852
-0.031870972 -0.033643678 0.030192018 0.0030813513 0.0012680736 0.021867432 0.043148663 -0.03291118
0.049765762 0.013947432 0.016209908 0.08612439 0.019425884 0.084982805 0.020682251 -0.024781208
0.047391098 0.045539998 0.037300073 -0.018661324 0.025863327 -0.006578823 -0.008572908 -0.0061991108
0.020382782 0.03624713 -0.0735161 0.09377505 -9.238456e-05 0.0009626819 0.04099938 -0.035353005
-0.13780297 0.018166646 0.0011557231 0.027023578 0.03208704 -0.039637174 -0.019475173 -0.012871354
0.074966155 -0.019721184 0.022481956 0.011457998 0.02388672 0.029014336 0.040096927 0.011166095
-0.0094179865 -0.028065044 0.017247684 -0.04417809 -0.04898294 0.10421871 -0.16984363 -0.13917145
-0.04344667 0.025799379 -0.039588626 0.1868793 -0.013552492 -0.023835 -0.042254515 0.00045823533
00000000: 7cc2 44bc 448e 413b e176 8d3c 72e4 16bc
00000010: 7998 d43c 6912 943c fdd5 0c3d 3bc9 153d
00000020: 9bf0 e93c 779c 81bd 76aa 6ebd b5c8 4abd
00000030: 3406 c43c c14d 853b 5c78 2cbd 5bf9 0dbd
00000040: 164a 8cbc 0aa9 a2bc da34 b33c 2ee4 fb3c
00000050: 2620 4fbc 99af 0d3d df50 03bd bead c63c
00000060: 1fb2 133d b07a 623b 4873 93bb 7a88 7abd
00000070: d2c6 94bd 65c5 3fbc ad5d f1bd bbed ea3c
00000080: 49df 0b3d d710 073e a993 103e 2664 5f3c
00000090: 47d5 163c 0171 323d 9c33 6abd 1e00 f2bc
000000a0: 26a7 133e a25b 453d 2ffb 85bd f616 243d
000000b0: fa5e 99bd 8313 053d 5959 18bd 572f 24bd
000000c0: 4bc3 f13b a0a6 c9bc b982 da3c bdc0 06bd
000000d0: d3fa cfbc fbfd 703c 4e9c c9bc 0627 1d3a
000000e0: ed12 85bc 1037 1ebd 04c9 973b 143e 07bd
000000f0: dcb7 49bc 04cc 8ebb 753b 30bc 9479 debc
00000100: eb7c 84bc ce8e 283c 8272 0d3d 80e9 e1b9
00000110: a065 fdbc a24f 1fbd 3fa9 cabb 16bb ac3b
00000120: 39ae e6ba fe14 213d 0968 da3c ea2e 70bc
00000130: 57e0 123c 57ee ad3b 0089 29bd 8e17 df3a
00000140: 8be6 e93c e5ca 713d 5d00 13bb 0487 b23d
00000150: 0776 483d e8d7 063d 4fdc a7ba 2574 b03d
00000160: 37f8 023c 3d48 fd3c 64d0 f33c 8755 0cbe
00000170: 2481 0c3b 9009 3a3e a892 9a3e 5692 993a
00000180: dfb7 093c 246f 793d cc2e f83d 3173 a43c
00000190: 2cdd 3a3c 1ee4 713b f822 a93c 7a78 28bd
000001a0: e27a c33c ca54 1bbd 3b32 97bc 700a 603c
000001b0: 0611 91bd 0b80 2c3e e715 b9bc 8fb4 953b
000001c0: 9fe3 dcbc e803 ddb9 f984 8cbb 2486 c93c
000001d0: d6ed 2e3d c624 53bc 4c52 6bbd cb45 863b
000001e0: 23ea dbbc 7c8c b03d e928 713d 3f35 6d3d
000001f0: e376 c93d cdb8 c73d b849 28bd 03fc 2c3c
00000200: 5f7d 2a3c 4fac 5ebc adbe 89bc 90ce 4ebc
00000210: 2ca9 cbbc 1e96 f13c 8815 c03c 74b1 e8bc
00000220: 37d7 d3bc aadd 19bc 1cdc f23c c586 a9bc
00000230: 307a d4bc decd bebd af5f 123d 1238 48bd
00000240: 5b4c b1bc 809a 65bc 326f 30bc 2066 a6bc
00000250: 1e7d a63c 24c5 7cbc c11e 353c 865e 8abc
00000260: f8e2 1abd 9e72 b9bc 5cb1 093d ba7b 363c
00000270: 8f56 b83c 97c3 fdbc 1bac 043d d997 c33c
00000280: 73c9 8bbb 711f c9bc db89 233c 743f 3f3d
00000290: 68e8 153e b1a4 0d3e 662c b23b ceeb 08bc
000002a0: 3b71 dd3d 9f8d 833b b8fb b13c ad1e dabc
000002b0: 071a 3a3b 2236 87bc c286 353c 99a5 b1bb
000002c0: d506 8bbc e625 2b3d 838c 593d b0d1 e23c
000002d0: e59f 5bbc 40f8 d43a 1d41 90bc a4ad ffbc
000002e0: 9c49 52ba a984 e33b d1e3 d83a 83f4 cb3c
000002f0: 8993 f8bb 3ca7 c6bc ca84 1f3c f1d7 6e3c
00000300: 238b 02bd f4cd 09bd 4055 f73c 7ff0 493b
00000310: 7d35 a63a 5423 b33c a7bc 303d e0cd 06bd
00000320: 2fd7 4b3d c583 643c a4ca 843c fc61 b03d
00000330: 0823 9f3c 770b ae3d d36d a93c f601 cbbc
00000340: 2b1d 423d 2688 3a3d f6c7 183d a2df 98bc
00000350: 54df d33c 2b93 d7bb 6275 0cbc e921 cbbb
00000360: cbf9 a63c df77 143d 9c8f 96bd 220d c03d
00000370: 95be c1b8 7d5c 7c3a f7ee 273d 50ce 10bd
00000380: 391c 0dbe 38d2 943c a27b 973a 8d60 dd3c
00000390: b36d 033d 975a 22bd 668a 9fbc 5fe2 52bc
000003a0: db87 993d 528e a1bc 142c b83c 54ba 3b3c
000003b0: 15ae c33c 79af ed3c ad3c 243d fff1 363c
000003c0: e64d 1abc aae8 e5bc 044b 8d3c 16f4 34bd
000003d0: 56a2 48bd 9e70 d53d 7deb 2dbe f682 0ebe
000003e0: 23f5 31bd 3859 d33c af27 22bd 4a5d 3f3e
000003f0: 450b 5ebc 9e41 c3bc 1213 2dbd 4e3f f039

features.3.bias f4 [10]
-0.02627938 -0.021921929 0.045669466 0.024636634 0.045315534 0.051118646 0.032083407 -0.018749535
-0.007956084 -0.0060451454
00000000: db47 d7bc 9e95 b3bc e80f 3b3d c4d2 c93c
00000010: c89c 393d c961 513d e469 033d a098 99bc
00000020: 3c5a 02bc 5b16 c6bb

classifier.0.weight f4 [10, 640]
-0.040799495 0.05042475 0.011499907 -0.05527277 -0.06504205 -0.024141366 0.022534318 0.036313042
-0.009198133 -0.022688141 -0.001428422 -0.050477024 0.035976678 -0.009521781 0.011135452 0.055466473
-0.033035178 -0.027648304 -0.04410779 0.03246348 -0.0031494044 -0.029138157 0.009947296 -0.027837843
0.038190097 -0.005486013 0.017791703 0.0021232767 0.018883498 0.016020868 -0.00040115803 -0.04059629
-0.064863235 -0.040017035 -0.019829884 -0.024548711 -0.0011677954 -0.041767087 -0.029895682 0.03553394
-0.05857568 -0.056836773 -0.0037471512 0.031944416 0.012514244 0.0021519808 0.040337224 -0.0015145672
-0.018482057 0.014661375 0.027531752 -0.04058092 0.013166192 -0.0022829468 0.02568804 0.029903665
-0.067249 -0.053125665 -0.042319328 -0.06624866 0.00473208 0.0141691165 -0.023083245 0.013953102
-0.016659651 -0.015702365 0.032251757 -0.028076729 0.017636577 -0.025729112 0.041457303 -0.0616425
-5.130582e-05 -0.009559524 -0.07420722 0.010806336 -0.011688092 0.010952338 0.06282388 -0.088534094
-0.006835878 0.007482141 0.015649192 -0.009087843 -0.065729186 -0.004977466 0.005986363 -0.029969838
-0.026640479 0.037586063 0.040116657 0.032357592 0.011409394 0.02546054 -0.0013692129 0.015338496
-0.00646554 0.050618887 0.02128672 0.0010084028 -0.02763196 -0.014522641 -0.027428335 0.058249783
0.029528905 -0.03465748 -0.014241106 0.002291133 -0.064702794 -0.0006592184 -0.031387813 -0.03420003
0.051925834 0.016235296 0.05860277 -0.0032310893 0.005009932 0.044645242 0.0758172 0.028677184
-0.006484228 0.018932816 0.10188791 0.028616337 0.060467407 0.09453932 0.016014881 0.033604
-0.058317836 -0.020759422 -0.039498698 -0.04612076 0.065335624 0.041809246 0.04223376 -0.0070517743
0.0415513 0.055446234 0.037019543 0.007621566 0.008331137 0.023193127 -0.060224142 0.026013436
0.03203793 -0.0014739616 -0.026698088 0.00018446386 0.05118854 0.0039136754 0.023322074 0.032200158
-0.005909277 0.035049867 -0.01228874 -0.023799637 -0.006101034 0.039573938 0.017819172 0.0013579805
-0.01040846 -0.016494121 0.01201795 0.019034754 -0.00739205 0.004642006 -0.0016430606 -0.01070464
-0.051455453 -0.032195438 -0.05776964 -0.009375398 0.010802666 -0.017097991 0.010593545 -0.06168393
-0.025086481 0.0076987175 -0.048539225 -0.019594364 -0.0127425995 -0.022628387 -0.016531639 -0.03223682
-0.0026787613 0.02818591 0.013882106 -0.025739746 -0.049631428 -0.03945617 -0.05871103 -0.018914368
0.059284244 -0.012640363 -0.014487397 -0.031568155 0.014183174 0.0023783573 -0.024026237 0.021780683
0.046619374 -0.03327923 -0.037098475 0.0062388955 -0.006997247 -0.009177019 0.04108546 -0.022047946
0.012770454 0.009492584 0.018400151 -0.058198564 -0.049647123 -0.009532642 0.0373863 -0.10094986
-0.013163941 -0.0334829 -0.036327817 -0.051602002 -0.001951089 0.06536429 0.013738023 -0.033931803
-0.039154187 -0.032337386 -0.0065646507 -8.468723e-05 -0.008255987 -0.023052786 -0.045834295 0.019253608
-0.0059314594 -0.0032678964 -0.036241055 0.007506821 -0.03814597 0.015111516 0.02059684 0.008829764
0.005124859 -0.009555863 -0.019081516 -0.037394628 -0.011570604 0.023696579 -0.0034626727 -0.03548804
-0.061237257 0.026233675 0.010149309 0.02526069 -0.020426007 0.018174121 0.041379187 -0.006460341
00000000: 5f1d 27bd 2f8a 4e3d 1b6a 3c3c b365 62bd
00000010: c434 85bd 1dc4 c5bc e499 b83c fcbc 143d
00000020: c4b3 16bc 7bdc b9bc e439 bbba ffc0 4ebd
00000030: 485c 133d 3e01 1cbc 7971 363c d030 633d
00000040: e54f 07bd b27e e2bc 5faa 34bd 6df8 043d
00000050: 3d66 4ebb 25b3 eebc fcf9 223c 300c e4bc
00000060: 386d 1c3d 03c4 b3bb e8bf 913c ac26 0b3b
00000070: 91b1 9a3c 323e 833c 8552 d2b9 4c48 26bd
00000080: 04d7 84bd e7e8 23bd 4872 a2bc 611a c9bc
00000090: b610 99ba f713 2bbd cae7 f4bc 098c 113d
000000a0: 0ded 6fbd adcd 68bd c492 75bb 26d8 023d
000000b0: 8b08 4d3c 3f08 0d3b a538 253d 7184 c6ba
000000c0: af67 97bc 4436 703c 458a e13c 2e38 26bd
000000d0: 03b7 573c 7e9d 15bb b96f d23c 88f8 f43c
000000e0: d8b9 89bd 4c9a 59bd 0857 2dbd 61ad 87bd
000000f0: 900f 9b3b 9525 683c 1319 bdbc 8d9b 643c
00000100: d279 88bc 3fa2 80bc 6b1a 043d 2b01 e6bc
00000110: 957a 903c dcc5 d2bc 22cf 293d d97c 7cbd
00000120: 3431 57b8 8d9f 1cbc f4f9 97bd 0f0d 313c
00000130: 697f 3fbc 6f71 333c cea9 803d 5d51 b5bd
00000140: 80ff dfbb bf2c f53b bc32 803c 2de5 14bc
00000150: 069d 86bd 031a a3bb 4129 c43b 4e83 f5bc
00000160: 223d dabc d8f3 193d 5d51 243d 6589 043d
00000170: 78ee 3a3c 9f92 d03c 2977 b3ba 514e 7b3c
00000180: e1dc d3bb c055 4f3d 7d61 ae3c 622c 843a
00000190: 6c5c e2bc 5ff0 6dbc 63b1 e0bc 5397 6e3d
000001a0: 9ae6 f13c 00f5 0dbd 8753 69bc d526 163b
000001b0: e682 84bd 66cf 2cba 8290 00bd 5515 0cbd
000001c0: 2fb0 543d e2ff 843c 7509 703d afc0 53bb
000001d0: 5b2a a43b eedd 363d 0c46 9b3d 6aec ea3c
000001e0: a679 d4bb fe18 9b3c 9caa d03d cf6c ea3c
000001f0: acac 773d d59d c13d a431 833c 59a4 093d
00000200: afde 6ebd aa0f aabc 63c9 21bd 1fe9 3cbd
00000210: afce 853d 2c40 2b3d 4ffd 2c3d 9212 e7bb
00000220: b231 2a3d 971b 633d cea1 173d 54be f93b
00000230: 527f 083c 83ff bd3c 97ad 76bd 211a d53c
00000240: 343a 033d f231 c1ba f3b5 dabc a46c 4139
00000250: 13ab 513d 4a3e 803b ef0d bf3c 50e4 033d
00000260: 9ca2 c1bb 7390 0f3d b656 49bc 75f7 c2bc
00000270: 2feb c7bb 4818 223d 83f9 913c 44fe b13a
00000280: 3f88 2abc ae1e 87bc f0e6 443c c6ee 9b3c
00000290: 0339 f2bb f81b 983b f75b d7ba 8462 2fbc
000002a0: f4c2 52bd 5ddf 03bd dc9f 6cbd 459b 19bc
000002b0: aafd 303c 1611 8cbc 8c90 2d3c 4aa8 7cbd
000002c0: 2a82 cdbc 8645 fc3b 11d1 46bd 5c84 a0bc
000002d0: 56c6 50bc 2b5f b9bc 5c6d 87bc c10a 04bd
000002e0: 288e 2fbb 23e6 e63c c671 633c 29dc d2bc
000002f0: 534a 4bbd cb9c 21bd fa7a 70bd 4ef2 9abc
00000300: 09d4 723d 8619 4fbc 8c5c 6dbc 9c4d 01bd
00000310: 8b60 683c 37de 1b3b acd2 c4bc 676d b23c
00000320: f5f3 3e3d cd4f 08bd 92f4 17bd a66f cc3b
00000330: 2a49 e5bb 355b 16bc 3a49 283d e59d b4bc
00000340: 2b3b 513c c886 1b3c eabb 963c 9e61 6ebd
00000350: c85a 4bbd cc2e 1cbc 6022 193d cdbe cebd
00000360: 92ad 57bc 5e25 09bd 7acc 14bd 9f5c 53bd
00000370: afbb ffba b6dd 853d 7215 613c 13fc 0abd
00000380: 2460 20bd 3574 04bd 481c d7bb 1c9a b1b8
00000390: 1f44 07bc 32d9 bcbc bebc 3bbd beb9 9d3c
000003a0: b05c c2bb 342a 56bb 8071 14bd c7fb f53b
000003b0: f33e 1cbd 4b96 773c b4ba a83c b7aa 103c
000003c0: 6fee a73b 3290 1cbc d750 9cbc 1c2b 19bd
000003d0: a192 3dbc 541f c23c 02ee 62bb e85b 11bd
000003e0: ebd3 7abd 01e8 d63c 4a49 263c 82ef ce3c
000003f0: 7154 a7bc e5e1 943c 397d 293d 45b1 d3bb

classifier.0.bias f4 [10]
2.0500422 -2.1364548 -2.058167 -2.0086272 2.0323582 -2.1284068 -2.0427794 2.0417027
-2.0243793 -1.9975322
00000000: e433 0340 adbb 08c0 02b9 03c0 598d 00c0
00000010: 2812 0240 d137 08c0 e6bc 02c0 42ab 0240
00000020: 6e8f 01c0 23af ffbf

classifier.1.weight f4 [1, 10]
0.49157533 -0.84989333 -0.53013736 -0.63735765 0.6688337 -0.60555255 -0.70604336 0.67803586
-0.4928433 -0.5434169
00000000: c3af fb3e 9c92 59bf 15b7 07bf df29 23bf
00000010: af38 2b3f 7e05 1bbf 42bf 34bf c293 2d3f
00000020: f555 fcbe 5f1d 0bbf
