Results/Training_5/servo_model.pth (torch_old, 127392 bytes, 7 tensors)

features.0.weight f4 [64, 3, 10, 10]
000000 14 5b 01 3d 4c 77 0a 3a fd f0 82 bd 8e 8f 3f 3d
       0.031581 0.0005282059 -0.06393621 0.046767764
000010 30 72 95 bb 42 8d 15 3d a8 56 6d bd 16 69 af 3c
       -0.0045607314 0.036511667 -0.05794397 0.021412414
000020 db 2f 3f bd ed 58 ea 3c 08 5c 39 3d 96 30 0f 3d
       -0.046676498 0.028606856 0.045253783 0.034958445
000030 5b fe c6 3b ef 2a 92 3c f2 85 03 bc 2f e8 43 3c
       0.006072802 0.017842738 -0.0080275405 0.011957212
000040 2b de b4 bb f9 84 fa bc d0 a4 2c bc f6 2c f5 3c
       -0.0055196485 -0.030580984 -0.010537341 0.029928666
000050 b8 78 9d bc 3f 38 b4 3c d9 4e 4b bd f4 e4 89 3c
       -0.019222602 0.021999476 -0.04963574 0.016832806
000060 be a8 6c bd eb 9c 95 bc a6 6c 85 bd 65 e6 83 bd
       -0.057778113 -0.0182633 -0.06514864 -0.06440429
000070 d0 f7 a6 3b 06 a3 11 bc 2e 99 67 bc 9b 73 e3 bb
       0.0050954595 -0.0088889655 -0.014135642 -0.0069412715
000080 9d ba 30 3d 7c 6a 47 bd 6a e0 4b bd aa 57 92 3c
       0.04314672 -0.048685536 -0.049774565 0.017864067
000090 8d 96 2f 3d 02 ed f3 bc 5d 06 e0 bc eb 4e d4 3c
       0.042868186 -0.0297761 -0.027346784 0.025916537
0000a0 d3 84 45 bb 46 77 39 3d e9 be 63 bc 5f 44 57 3c
       -0.0030138984 0.045279764 -0.013900497 0.0131388595
0000b0 99 75 62 bd 51 c9 04 3c ff 6a 87 3c ee ed c7 bc
       -0.05528793 0.008104638 0.016530512 -0.024405446
0000c0 ea c1 8c 3c 4c dc 0d bd 7f d7 45 bc f6 84 86 3c
       0.01718231 -0.03463392 -0.012075304 0.016420823
0000d0 40 52 be b9 f1 2b 53 3d 18 a7 1f bc 26 a4 38 b9
       -0.00036300905 0.051555578 -0.009744428 -0.00017608757
0000e0 f1 9c 05 bd e5 7b 21 39 1f 2f c3 3c d0 4f 90 bd
       -0.032620374 0.00015400311 0.02382618 -0.07046473
0000f0 8d a1 d3 bc 3a b8 67 3c 14 1c 17 bd 38 5f b4 3a
       -0.02583387 0.014143044 -0.03689201 0.0013761288
000100 e1 2d 78 bd 7d 16 28 3d 06 ca 75 bc 41 b6 69 bd
       -0.06059063 0.04103707 -0.015001779 -0.057058576
000110 6f a9 bc 3c 6d ab 89 bc ec cf 7d bc a6 32 76 3c
       0.023030011 -0.016805375 -0.015491467 0.015026724
000120 cd 94 e9 3c a4 65 da 3c 79 a6 c3 3c 9e fc ec bc
       0.028513337 0.026659794 0.023883091 -0.028929051
000130 90 60 14 bd a8 26 ab 3c 37 c9 01 bd b5 9c 42 bd
       -0.0362249 0.020892456 -0.031686034 -0.04751273
000140 90 a9 30 3d d8 0d c5 3c 66 a0 45 bd 5f bf d4 bc
       0.043130457 0.024054453 -0.04824867 -0.02597016
000150 65 6a 7d bc 82 d8 40 3d 04 62 47 3c bb 54 ce bc
       -0.015467261 0.047081478 0.012169365 -0.025186887
000160 45 a7 5e 3c 16 f9 25 bd c5 0e 86 3c d8 f2 d8 b9
       0.013589685 -0.04052075 0.016364465 -0.00041379663
000170 ea 6e 62 bc 7d 9b 05 bd c9 04 50 3d 49 84 a3 bc
       -0.013820389 -0.03261899 0.050785813 -0.01996054
000180 16 8a 64 bd bf f1 63 bb ed 79 77 bd e7 65 d5 3c
       -0.05579575 -0.0034781543 -0.06041901 0.026049567
000190 92 c4 bf 3c 18 a5 9d 3c 6a e5 37 bd 47 90 60 bc
       0.023409162 0.019243762 -0.04489652 -0.013706273
0001a0 73 72 ad 3c cb aa f1 bb 31 fe 03 3d c7 f0 14 3d
       0.021172738 -0.0073750964 0.032224838 0.036362436
0001b0 48 79 63 3c a6 16 ab bb 44 05 5c bd 3f 65 f1 3c
       0.013883896 -0.0052212058 -0.05371596 0.029467223
0001c0 83 da 23 3d 5a eb 28 3d 08 e5 24 3d 01 2b ce 3c
       0.04000331 0.041240074 0.040257484 0.02516699
0001d0 04 f1 12 3d 6d 33 65 bd 76 5d 22 bd ee 15 9f bb
       0.03587438 -0.055957247 -0.039639913 -0.004854909
0001e0 c2 a3 1f bd 4f 7d 25 bb 4f d5 a9 bb de 47 ef 3c
       -0.03897453 -0.0025251692 -0.005182899 0.029209074
0001f0 fb 27 c6 bc 13 2e 74 bd 62 24 1f bd fa b3 59 bc
       -0.024188986 -0.059614252 -0.038853057 -0.013287539
000200 d9 29 5a 3c 85 1b d6 bc 9f 39 6b 3d 94 e2 55 bd
       0.013315641 -0.02613617 0.057428 -0.052218035
000210 ae d5 40 3d ba e7 23 bd 57 37 37 3d d5 d3 ba 3c
       0.04707878 -0.040015914 0.04473051 0.022806088
000220 b7 87 20 bd 2a ac 03 bc c4 d7 27 3a db 39 89 bd
       -0.039191928 -0.008036653 0.0006402696 -0.06700488
000230 b5 b5 6c 3c cd 4f 33 bd 68 42 61 bd ef 2d 9c bc
       0.014447619 -0.043777276 -0.05499497 -0.019064872
000240 33 d4 4e 3c 22 3b 9e 3a 36 06 98 bc f9 1f a3 bb
       0.012623834 0.0012072066 -0.01855765 -0.0049781767
000250 d5 0d 2c 3d b1 db ff bc 43 1c 40 bc b7 5c a0 bc
       0.04200538 -0.031232687 -0.011725488 -0.01957546
000260 e7 56 c8 3c 1e 73 0c bd 28 eb 67 3d ae 29 f6 3c
       0.0244555 -0.03428947 0.056620747 0.030049171
000270 e9 d6 f6 3c 9f e5 80 bd b3 a0 20 3c 5e 37 a2 bc
       0.030131774 -0.06293797 0.009803939 -0.019801792
000280 e1 c7 62 bd fe 4e 2d 3d 98 9f 04 3c 32 88 4f 3d
       -0.0553664 0.04231166 0.008094691 0.050666995
000290 d4 47 52 bc 56 a3 05 3d 0c 46 29 bd ef 5e 82 bc
       -0.012834508 0.032626472 -0.041326568 -0.015914408
0002a0 e2 31 c5 bc 20 40 17 bd 09 4c 87 bc 10 7f 0b bd
       -0.024071638 -0.03692639 -0.016515749 -0.034056723
0002b0 95 c8 af bc f9 19 3e 3d 95 ab 58 3d f9 2f 0a 3c
       -0.02145795 0.04641149 0.05289801 0.008434289
0002c0 bd c6 4d bd 1e 76 94 3b 79 52 b8 bc 4a 02 86 bd
       -0.05023836 0.004530682 -0.022500264 -0.06543405
0002d0 e0 60 18 bd 24 40 e6 3b 47 7b fe bc 8c 0a c5 bc
       -0.037201762 0.007026689 -0.031064643 -0.02405288
0002e0 6a 44 72 3c 85 5f 6b bd 4a e5 23 bc ad f2 09 bd
       0.014786819 -0.05746414 -0.010003397 -0.0336787
0002f0 87 4c 3b bd de f6 2e bd d4 3a 4c bb 1c 39 6a bc
       -0.04572728 -0.0427159 -0.0031162994 -0.0142958425
000300 dd 49 1d 3d 67 3d 1d bd 39 ac 6b bc c7 16 3d bd
       0.03840052 -0.038388636 -0.014384323 -0.0461643
000310 e8 cc 11 bd 9f ae 41 3c e6 38 82 bd 93 f1 20 3d
       -0.035595804 0.011821418 -0.06358509 0.039292883
000320 90 ae 29 bc 89 a4 84 bd e4 91 ef 3c 48 60 15 3c
       -0.01035656 -0.06476695 0.02924437 0.0091171935
000330 79 0e 67 bd 96 5a 39 3c 1b 57 eb 3c 57 42 da bc
       -0.056410287 0.011313101 0.028728059 -0.026642961
000340 1b 6b 00 3c 1a 27 03 bd 02 21 2d bd c0 63 de bc
       0.007838036 -0.032019712 -0.042267807 -0.027147174
000350 11 4f 3d 3d 59 62 61 3c 08 f4 06 3c 8d 54 5a 3d
       0.04621798 0.013756358 0.0082368925 0.05330329
000360 7f d7 f2 3c d5 dd 3f bd ec 92 be 3c dc a7 4f bb
       0.029643772 -0.046842415 0.023263417 -0.0031685745
000370 41 71 03 3d d2 ab 57 bc a1 57 42 3d fd 41 1c bd
       0.03209043 -0.013163524 0.04744685 -0.03814887
000380 54 ac 83 3c d2 1d 11 bd 05 1b c5 bc cb 86 37 3c
       0.016073383 -0.03542883 -0.024060735 0.011201571
000390 55 98 16 3d 96 f7 87 bd 15 38 a6 3c 63 0c e2 bc
       0.03676637 -0.0663902 0.020290414 -0.027593797
0003a0 75 85 54 3d 04 1f 97 bb 9c bf e0 3b d4 95 3c bc
       0.051885087 -0.0046118516 0.006858779 -0.011510331
0003b0 ef 82 ae 3b 42 ae ee 3c 01 5b 75 3c 8c e3 2f bd
       0.005325667 0.029135827 0.01497531 -0.042941615
0003c0 ec bb 2b 3d d1 22 15 bd 1d a5 16 bd cd c5 93 3c
       0.041927263 -0.036410157 -0.036778558 0.018038655
0003d0 d1 80 1d 3d 9f 64 54 bd 7f c9 a0 bc c2 f5 83 bc
       0.038452927 -0.051853772 -0.01962733 -0.016108397
0003e0 2c 9a ea 3c a0 42 6d bd 9a c0 74 bd c2 6a 33 3d
       0.028637968 -0.057924867 -0.05975399 0.043802984
0003f0 81 a6 9d bb 5c 7f 1d 3d 11 64 d2 bc 25 68 2d bd
       -0.0048111086 0.038451537 -0.025682481 -0.042335648

features.0.bias f4 [64]
000000 ff 51 8f bb 39 41 d5 3d a2 b6 c6 bc 00 30 94 3e
       -0.0043737884 0.10412831 -0.024257008 0.2894287
000010 80 65 1c 39 c7 4b fc 3c 56 e9 2d 3d 2f 83 f7 3c
       0.00014915131 0.030797852 0.042458855 0.03021392
000020 3e 6f 0b 3d fe 89 f0 be 80 2a 76 3e f3 64 21 3d
       0.034041636 -0.4698028 0.2403965 0.039402913
000030 cb 40 c6 3d c7 ed f5 3e 1a 18 e9 3d 83 85 4d bf
       0.09680327 0.48032972 0.1138155 -0.8028185
000040 ee 99 bd 3c 64 88 b6 3d 95 f0 94 be f3 44 50 3d
       0.023144688 0.08912733 -0.290898 0.050847005
000050 c0 ac df 3d f6 34 0a 3e ae d4 9d 3e fd 32 93 3d
       0.10921621 0.13496765 0.30826324 0.071874596
000060 58 59 38 3e 1b 5a e9 3e 68 40 bd 3d 73 fb 35 be
       0.18002832 0.45576558 0.092408 -0.17771702
000070 87 43 13 3e 6a 68 b0 bc 22 6e c1 bc cc ef 86 3c
       0.14381228 -0.021534164 -0.023612086 0.016471766
000080 79 c8 df 3d b7 a6 fb 3d 73 8c a5 3d c5 4e d5 be
       0.10926909 0.12287658 0.08083429 -0.4166166
000090 6d 8d 01 bd 14 f1 d7 be 49 1d cb 3d f5 75 8d 3e
       -0.031629015 -0.42176116 0.09917695 0.27629057
0000a0 fd b0 9a 3d 02 65 6b be 9b f6 1c bd 4f bc ed bc
       0.07553289 -0.2298775 -0.03832112 -0.029020457
0000b0 a9 53 05 bf 23 ef 92 bd c7 6f 61 3d 32 73 b1 be
       -0.5208078 -0.07174518 0.05503824 -0.346582
0000c0 6d 4b 04 3e 99 df a2 bc 09 06 dc 3a 03 a1 a0 3d
       0.12919398 -0.01988201 0.0016786467 0.078432105
0000d0 1a ca 1a bd a6 e4 cf 3d 82 dc d7 be e7 44 53 bd
       -0.037790395 0.10151033 -0.42160422 -0.051579382
0000e0 7a 72 e8 be 9c f5 c2 3e d2 8c 4d bd c9 53 7a 3c
       -0.4539984 0.3807801 -0.050183125 0.015278765
0000f0 a6 d0 90 be 57 b2 f1 3d f7 15 07 3d 6d 91 0b 3e
       -0.28284186 0.11801594 0.03297993 0.13629694

features.3.weight f4 [10, 64, 3, 3]
000000 7c c2 44 bc 44 8e 41 3b e1 76 8d 3c 72 e4 16 bc
       -0.012009259 0.002953426 0.0172686 -0.009209739
000010 79 98 d4 3c 69 12 94 3c fd d5 0c 3d 3b c9 15 3d
       0.02595161 0.018075185 0.034383763 0.03656886
000020 9b f0 e9 3c 77 9c 81 bd 76 aa 6e bd b5 c8 4a bd
       0.028557112 -0.063286714 -0.058268033 -0.049507815
000030 34 06 c4 3c c1 4d 85 3b 5c 78 2c bd 5b f9 0d bd
       0.02392874 0.004068107 -0.04210697 -0.034661632
000040 16 4a 8c bc 0a a9 a2 bc da 34 b3 3c 2e e4 fb 3c
       -0.01712517 -0.019855995 0.021875788 0.030748453
000050 26 20 4f bc 99 af 0d 3d df 50 03 bd be ad c6 3c
       -0.012641942 0.03459129 -0.032059547 0.024252769
000060 1f b2 13 3d b0 7a 62 3b 48 73 93 bb e3 c8 bf bc
       0.03605854 0.003455799 -0.0044998266 -0.02341122
000070 33 1e d9 bd da a1 d1 bc 55 26 db bd 5c b6 c3 3b
       -0.10601463 -0.025589872 -0.10700671 0.0059726667
000080 74 27 56 3d 1e 5a 2b 3e 78 e2 86 3d 7e a9 d3 3c
       0.05228372 0.16733596 0.06586164 0.025837656
000090 48 2a 07 3d c6 e3 63 3d 77 7e 9a bd 41 a9 02 bd
       0.032999307 0.055637144 -0.075436525 -0.031899694
0000a0 03 0a 36 3e 68 2c 32 3c 82 f4 11 be e9 be 3d 3d
       0.17777257 0.010874845 -0.14253429 0.046324644
0000b0 9d e5 7d bd 83 13 05 3d 59 59 18 bd 57 2f 24 bd
       -0.061986554 0.03248931 -0.037194584 -0.04008421
0000c0 4b c3 f1 3b a0 a6 c9 bc b9 82 da 3c bd c0 06 bd
       0.007378017 -0.024615586 0.026673662 -0.032898653
0000d0 d3 fa cf bc fb fd 70 3c 4e 9c c9 bc 06 27 1d 3a
       -0.025388157 0.014708991 -0.024610665 0.00059948897
0000e0 ed 12 85 bc 10 37 1e bd 04 c9 97 3b 14 3e 07 bd
       -0.016244376 -0.03862673 0.004632117 -0.033018187
0000f0 dc b7 49 bc 04 cc 8e bb 75 3b 30 bc 94 79 de bc
       -0.012311902 -0.0043578167 -0.010756363 -0.027157582
000100 eb 7c 84 bc ce 8e 28 3c 82 72 0d 3d 80 e9 e1 b9
       -0.016172847 0.010287954 0.03453303 -0.00043089315
000110 a0 65 fd bc a2 4f 1f bd 3f a9 ca bb 16 bb ac 3b
       -0.030932248 -0.038894303 -0.0061847265 0.005271326
000120 39 ae e6 ba fe 14 21 3d 09 68 da 3c ea 2e 70 bc
       -0.001759953 0.03932666 0.026660936 -0.014659623
000130 57 e0 12 3c 57 ee ad 3b 00 89 29 bd 8e 17 df 3a
       0.00896462 0.0053079533 -0.04139042 0.001702057
000140 8b e6 e9 3c fd 6f b8 3d 19 29 b5 bc d8 22 b9 3d
       0.028552314 0.09005735 -0.022114323 0.09039849
000150 9b 03 77 3c cb 53 28 3c b4 3a 7b 3c 52 10 c9 3d
       0.015076543 0.010273884 0.01533382 0.09817566
000160 f2 59 8e bc 0e 40 a0 3d e8 15 96 3c d9 2e ea bd
       -0.017376874 0.078247175 0.018320993 -0.11434717
000170 11 6e 2e 3d a2 26 0b 3e 8c 10 a1 3e fd cd 88 3c
       0.042585436 0.13588956 0.31457937 0.016699785
000180 23 44 85 3d 81 aa 3f 3e f5 d2 c3 3d 31 73 a4 3c
       0.06507137 0.18717386 0.09561721 0.020074459
000190 2c dd 3a 3c 1e e4 71 3b f8 22 a9 3c 7a 78 28 bd
       0.011405271 0.003690965 0.020646557 -0.04113052
0001a0 e2 7a c3 3c ca 54 1b bd 3b 32 97 bc 70 0a 60 3c
       0.023862306 -0.037922658 -0.018456569 0.0136743635
0001b0 47 18 a4 bd a3 a1 56 3e eb 88 7f bb 55 22 9c 3d
       -0.08012443 0.20960097 -0.0038991522 0.07623736
0001c0 b3 e4 e0 bd 0a 16 aa ba de 72 bf bc ff f5 94 3d
       -0.10981121 -0.0012976539 -0.023370203 0.072734825
0001d0 e4 ed ca 3c c5 a1 66 bc 96 04 67 be 0e 5f bd bd
       0.024771638 -0.014076655 -0.22560343 -0.09246646
0001e0 13 e2 b5 bc f4 9c 7a 3e f1 4f bd 3d 78 34 14 3d
       -0.022202527 0.24473935 0.09243763 0.03618285
0001f0 06 bd 5b 3e 70 70 dc 3d b8 49 28 bd 03 fc 2c 3c
       0.21458825 0.10763633 -0.04108593 0.010558131
000200 5f 7d 2a 3c 4f ac 5e bc ad be 89 bc 90 ce 4e bc
       0.010405867 -0.013590886 -0.016814554 -0.0126224905
000210 2c a9 cb bc 1e 96 f1 3c 88 15 c0 3c c8 af 05 bd
       -0.02486094 0.029490527 0.023447767 -0.03263834
000220 94 05 00 bd e6 e1 ff bc a2 c9 2d 3d 9b 41 86 3b
       -0.03125532 -0.031235646 0.04242862 0.0040971763
000230 a2 a4 19 bd 5a b6 f3 bd 31 7e bb bd 44 ab 6c bd
       -0.03751052 -0.11900015 -0.091549285 -0.05778052
000240 5b 4c b1 bc 80 9a 65 bc 32 6f 30 bc 20 66 a6 bc
       -0.021642854 -0.014013886 -0.0107686985 -0.020312369
000250 1e 7d a6 3c 24 c5 7c bc c1 1e 35 3c 86 5e 8a bc
       0.020323332 -0.015427861 0.011054696 -0.016890775
000260 f8 e2 1a bd 9e 72 b9 bc 5c b1 09 3d ba 7b 36 3c
       -0.03781411 -0.022637662 0.03361641 0.011137897
000270 8f 56 b8 3c 97 c3 fd bc 1b ac 04 3d d9 97 c3 3c
       0.022502212 -0.030977054 0.032390695 0.023876118
000280 73 c9 8b bb 71 1f c9 bc 1a a6 df bb 59 87 c0 3c
       -0.004265958 -0.024551125 -0.006825221 0.023502039
000290 7c 1f 0a 3e 27 0e 32 3e d6 e4 d7 3c e4 24 67 3c
       0.13488573 0.17388211 0.026354235 0.0141079165
0002a0 25 8f 1e 3e 42 3b b8 bc f5 f0 61 3d ad 1e da bc
       0.15484293 -0.022489194 0.055161435 -0.026625955
0002b0 07 1a 3a 3b 22 36 87 bc c2 86 35 3c 99 a5 b1 bb
       0.002839686 -0.016505305 0.011079492 -0.005421352
0002c0 d5 06 8b bc e6 25 2b 3d 83 8c 59 3d b0 d1 e2 3c
       -0.016971031 0.04178419 0.053112518 0.027687877
0002d0 e5 9f 5b bc 40 f8 d4 3a 1d 41 90 bc a4 ad ff bc
       -0.013404821 0.0016248301 -0.017609173 -0.031210728
0002e0 9c 49 52 ba a9 84 e3 3b d1 e3 d8 3a 83 f4 cb 3c
       -0.0008021833 0.0069433046 0.0016547387 0.024896866
0002f0 89 93 f8 bb 3c a7 c6 bc ca 84 1f 3c f1 d7 6e 3c
       -0.007585947 -0.024249665 0.009736249 0.014577852
000300 23 8b 02 bd f4 cd 09 bd 40 55 f7 3c 7f f0 49 3b
       -0.031870972 -0.033643678 0.030192018 0.0030813513
000310 7d 35 a6 3a 54 23 b3 3c 03 df 3b 3d 51 55 7a 3b
       0.0012680736 0.021867432 0.045866977 0.0038197825
000320 4c ab 40 3d 81 c4 0b 3d 07 de fd 3c b2 08 65 3c
       0.04703836 0.034122948 0.03098966 0.013979124
000330 dd 2e f7 3c fb 5a a2 3d bc c3 54 3d f6 01 cb bc
       0.030173713 0.079275094 0.05194448 -0.024781208
000340 2b 1d 42 3d 26 88 3a 3d f6 c7 18 3d a2 df 98 bc
       0.047391098 0.045539998 0.037300073 -0.018661324
000350 54 df d3 3c 2b 93 d7 bb 62 75 0c bc e9 21 cb bb
       0.025863327 -0.006578823 -0.008572908 -0.0061991108
000360 4e 27 71 3d 60 49 a6 3c 21 fa 17 bd b6 77 c3 3d
       0.058875374 0.02029866 -0.037103776 0.095443174
000370 d3 12 30 bd a2 c4 30 3d 8e 9d 8c 3d 7b 6d 2f bd
       -0.042986702 0.043156274 0.06865989 -0.042829018
000380 ad bd 08 be 11 7a b6 3c d1 eb 85 bc 38 38 c9 3d
       -0.13353606 0.022275003 -0.016347798 0.09825176
000390 71 c1 1a 3d e4 e1 8d bd 5a 9a ee ba ef a8 f3 3b
       0.037782136 -0.06927851 -0.0018203959 0.00743591
0003a0 fe 05 5f 3d 52 c4 05 bb 14 2c b8 3c 54 ba 3b 3c
       0.054449074 -0.0020411205 0.022481956 0.011457998
0003b0 15 ae c3 3c 79 af ed 3c ad 3c 24 3d ff f1 36 3c
       0.02388672 0.029014336 0.040096927 0.011166095
0003c0 e6 4d 1a bc aa e8 e5 bc 04 4b 8d 3c 96 22 07 3d
       -0.0094179865 -0.028065044 0.017247684 0.032991968
0003d0 57 88 28 be bd bd b2 3d e2 af 33 be 1f ed 2d be
       -0.1645826 0.08727596 -0.17547563 -0.16984986
0003e0 a7 1b 9f bd 5a c9 cb bc b6 16 94 bd e3 59 87 3e
       -0.07768946 -0.024876285 -0.07230894 0.26435766
0003f0 45 0b 5e bc 9e 41 c3 bc 12 13 2d bd 4e 3f f0 39
       -0.013552492 -0.023835 -0.042254515 0.00045823533

features.3.bias f4 [10]
000000 69 42 45 bd a8 54 04 bd 12 37 53 3d 1f 71 df 3c
       -0.048159037 -0.032307297 0.05156619 0.02727562
000010 d7 9c 73 3d 74 87 45 3d ed 67 5d 3d db 7c ee bc
       0.059475746 0.04822488 0.05405419 -0.02911227
000020 86 ff 00 bd 77 35 80 3c
       -0.031493686 0.015650494

classifier.0.weight f4 [10, 640]
000000 9a 54 06 bd fd 48 63 3d 23 5e 4f bc 3e ca 4c bd
       -0.032795526 0.05548953 -0.012656721 -0.04999756
000010 fe 04 90 bd 39 b8 3a bb a5 57 03 3d 05 69 3b 3d
       -0.07032202 -0.0028491153 0.032066006 0.04575445
000020 bb 22 66 bc 67 2d 19 bd f3 bb ab bc 47 b3 1b bd
       -0.014046366 -0.037396815 -0.020963645 -0.03801277
000030 e5 8f dc 3c 44 37 24 bd e5 49 89 3c ec 82 48 3d
       0.026924083 -0.040091768 0.016758868 0.04895298
000040 4a 90 a5 bc 1d 41 9c bc 89 89 50 bd 83 39 24 3d
       -0.020210404 -0.019074017 -0.050912414 0.04009391
000050 dd a5 9b 3c 03 e6 26 bd 77 94 a1 3c 63 70 12 bd
       0.018999988 -0.0407467 0.019724114 -0.03575171
000060 62 f8 2d 3d 0e f9 b0 bc 81 1c 8c 3c ec 2f 60 3c
       0.042473204 -0.021603134 0.017103435 0.0136833
000070 54 0f c2 3a f1 c0 b5 3c 75 51 11 bb 9f b0 0e bd
       0.0014805594 0.022186728 -0.0022173796 -0.034836408
000080 3d 20 81 bd 75 8d 4c bd 36 1d b9 bc c2 e8 65 bc
       -0.06304977 -0.04993959 -0.022596937 -0.014032545
000090 eb 83 e2 bb ea f6 37 bd 61 72 91 bc 31 ff 07 3d
       -0.0069126985 -0.04491321 -0.017754735 0.033202354
0000a0 9c a8 3d bd 56 45 4d bd ee 33 2f bc c7 b4 01 3d
       -0.046303377 -0.050114952 -0.010693533 0.031666543
0000b0 b3 2d e1 3c e8 a4 90 3b 82 82 c4 3c 3a 07 e0 3b
       0.027487611 0.0044141896 0.023988012 0.006836799
0000c0 92 e6 59 bc cc 5f 71 3c 43 7b c0 3c cb 42 ea bc
       -0.013299601 0.014732312 0.023496276 -0.028596302
0000d0 69 dc 2a 39 f9 a6 a3 b9 c5 91 eb 3c c2 76 cd 3c
       0.00016294573 -0.00031214187 0.028756032 0.025081042
0000e0 14 1a 9c bd ac d9 3d bd cf 2e 15 bd 93 88 88 bd
       -0.076221615 -0.046350166 -0.036421593 -0.066666745
0000f0 42 e3 87 3c ef a3 24 3c 2d f5 21 bd 2b d5 d1 3c
       0.016587857 0.01004885 -0.03954046 0.025614342
000100 1a 2a 60 bc df de 54 bc 11 31 15 3d 9c 13 13 bd
       -0.013681913 -0.01299259 0.036423746 -0.035907373
000110 fc 32 b4 3c ef 3a ed bc 5c 73 12 3d 59 1c 44 bd
       0.021996967 -0.028958766 0.035754547 -0.047878597
000120 16 fe e9 bb a1 75 13 bc e9 14 7e bd d3 dd 19 3c
       -0.007140885 -0.009000213 -0.06203166 0.009391266
000130 31 27 ee bc 2f f0 a8 3c 75 fb 79 3d 7b 9d ba bd
       -0.029071422 0.020622341 0.061030824 -0.09112068
000140 ab 92 7a 3b de 79 6d bc ac 08 d7 3c dc ad 07 bd
       0.0038234394 -0.014494387 0.026249252 -0.03312479
000150 38 92 11 bd ee 20 95 bc bc be 7e 3c 6e 37 43 bd
       -0.035539836 -0.018204179 0.015548404 -0.047660284
000160 52 b2 a6 bc eb 36 ff 3c df 01 27 3d 81 43 13 3d
       -0.020348702 0.031154117 0.04077327 0.03595305
000170 04 4a 95 3c f3 5b 0b 3c 37 7f cb 3b 51 22 8e 3c
       0.01822377 0.008505809 0.0062102336 0.017350348
000180 1a 31 79 bc 4b cc 5a 3d 6d 71 cf 3c ee 69 33 bc
       -0.015209461 0.053417485 0.02532264 -0.010950549
000190 90 0a c1 bc 5a 8a ae bc b2 f6 78 bc 29 00 55 3d
       -0.023564607 -0.021306206 -0.0151955355 0.052002106
0001a0 a0 54 aa 3c 22 22 e0 bc 2d 29 76 bc 6c 18 44 3c
       0.020792305 -0.027360026 -0.0150244655 0.011968713
0001b0 e4 cc 8a bd e1 28 44 bb 1a 65 41 bd 57 35 81 bc
       -0.06777361 -0.0029931592 -0.04721556 -0.015772505
0001c0 0e f5 3f 3d 60 1f 85 3c fd d7 81 3d 2e ee cc bb
       0.04686456 0.016250312 0.063400246 -0.006253979
0001d0 a1 9d e6 3b 5f 9f 66 3d 8c 55 62 3d ce c2 01 3d
       0.007037834 0.056304332 0.055257365 0.03167992
0001e0 a6 43 a4 bc ab 37 be 3c 7e 10 c2 3d 99 10 b7 3c
       -0.020051789 0.023219904 0.09475802 0.022346782
0001f0 a2 0a 8e 3d 39 6d b2 3d 62 d4 2a 3c 44 e0 35 3d
       0.06935622 0.08712239 0.010426613 0.04440333
000200 79 df 53 bd ef 4f 93 bc 1b 62 30 bd 57 b1 09 bd
       -0.051726792 -0.017982451 -0.04306231 -0.03361639
000210 6b c6 6c 3d 13 a1 57 3d 5e a3 87 3c 05 5f fb bb
       0.057806414 0.052643847 0.016557392 -0.0076712393
000220 8e f1 56 3d f9 5f 58 3d 39 f3 2d 3d c0 47 a4 3c
       0.05247646 0.0528259 0.042468283 0.020053744
000230 ab d5 9a 3b 8d c3 1b bb 17 26 3c bd 85 1c cb 3c
       0.0047251782 -0.002376768 -0.045934763 0.024793873
000240 5c ba 20 3d 3e f5 1c ba 8c fa 19 bd 86 9e ce bb
       0.039240226 -0.00059874717 -0.037592456 -0.0063055186
000250 e3 46 1c 3d 54 3d 85 39 73 56 08 3d de b1 ec 3c
       0.03815354 0.0002541343 0.03328557 0.028893407
000260 25 b5 66 ba c0 72 33 3c e8 46 44 3c ac f2 ac bc
       -0.00088007963 0.0109526515 0.011979796 -0.021111809
000270 88 de 2c 3c fa 53 4b 3d 19 d6 a6 3c 98 31 2c bc
       0.010551102 0.049640633 0.020365762 -0.010509871
000280 16 ad c7 bb d2 06 45 bb 22 e7 ba 3b 38 d9 b9 3c
       -0.0060936315 -0.003006388 0.0057038227 0.022686586
000290 03 67 ee bb dd 36 7d 3c 4c ba d0 ba 74 cc 50 bc
       -0.0072754635 0.015454975 -0.0015924661 -0.012744058
0002a0 52 47 47 bd dc 12 27 bd fb 4a 50 bd 0a ba 76 bc
       -0.048652 -0.04078947 -0.050852757 -0.015059004
0002b0 55 fa 58 3b e3 d2 be bc 02 0a 04 3d 05 a3 5e bd
       0.0033108194 -0.023293918 0.032236107 -0.054354686
0002c0 d5 73 0f bc b4 a5 56 3b 8d 6b 2f bd d6 ae b1 bc
       -0.008755644 0.0032752575 -0.042827178 -0.021689814
0002d0 df c5 30 bc 44 52 ec bc b3 aa 04 bd 8e 5d f5 bc
       -0.010789364 -0.028847821 -0.032389354 -0.029951837
0002e0 12 cc 15 bc dd 23 2a 3d be a6 72 3c 5a 4a 0f bd
       -0.009142892 0.04153811 0.014810262 -0.034983017
0002f0 98 25 37 bd 69 ae 0a bd 8a e7 96 bd f6 2f 11 bd
       -0.044713587 -0.033857737 -0.07368381 -0.03544613
000300 03 0c 6f 3d a3 a4 6f bc bd 34 1f bc 17 89 16 bb
       0.058361065 -0.014626655 -0.009717164 -0.0022969896
000310 51 70 31 3b 11 c9 d4 bb 1b 5c 0b bd 33 68 d6 3c
       0.0027075002 -0.0064936955 -0.034023385 0.026172733
000320 40 c8 05 3d e2 0b d4 bc 0a 4b a9 bc 7d 05 91 bc
       0.032661676 -0.025884572 -0.020665664 -0.017702812
000330 da 6b af bc 71 0f 0f bc e9 cb 5b 3d a9 ed bb bc
       -0.021413732 -0.008731709 0.05366126 -0.022940474
000340 b5 fa 28 3c b6 67 96 3b 64 cb 9d 3a b9 47 6c bd
       0.010313679 0.00459 0.0012038765 -0.057685588
000350 69 98 04 bd 62 73 f9 bb 04 17 20 3d 58 a7 bc bd
       -0.032371912 -0.0076126317 0.03908445 -0.09211606
000360 71 ba c1 bc 3a fe dc bc 4f f0 29 bd 05 7e 1b bd
       -0.023648473 -0.026976693 -0.04148894 -0.03796198
000370 fd f2 b2 bb 90 e2 3a 3d 48 2d 92 3b c2 80 c6 bc
       -0.0054610954 0.045626223 0.0044609644 -0.024231318
000380 ad 21 3a bd e9 82 f9 bc af d0 1d 3a 1c 7f 19 bc
       -0.045442272 -0.03045793 0.0006020171 -0.009368684
000390 aa 5b 89 3b 9a 64 12 bd 79 24 11 bd 81 e3 2a 3c
       0.0041918354 -0.035740472 -0.035435174 0.010430218
0003a0 06 a2 42 3b 80 07 62 bb e1 8d 16 bd 01 a3 c4 3c
       0.0029698624 -0.0034489334 -0.0367564 0.024003508
0003b0 08 4a 56 bd dc 9b 1b 3d 22 4d b4 3c 2f 7c 93 3c
       -0.052316695 0.037990436 0.022009436 0.018003551
0003c0 fe 72 1f bb 6c d0 db bb 6f ef 78 bc bd ef 35 bd
       -0.0024330015 -0.0067081954 -0.015193804 -0.044418085
0003d0 95 00 2c bc 44 2a f4 3c cf f4 66 bc 88 e2 c7 bc
       -0.010498186 0.02980531 -0.014096453 -0.02440001
0003e0 6a 59 64 bd 18 bb 9a 3c 81 c9 f1 3b 94 5f 05 3d
       -0.055749334 0.018888041 0.0073787575 0.032561854
0003f0 4d 25 bb bc 9d 5d a7 3c 81 82 31 3d 90 e9 14 3b
       -0.022844935 0.02043038 0.04333735 0.0022722222

classifier.0.bias f4 [10]
000000 3b 31 11 40 dd 0a 17 c0 76 c4 11 c0 80 b7 0e c0
       2.2686298 -2.360038 -2.277616 -2.22995
000010 e2 43 10 40 45 5b 16 c0 50 f6 10 c0 88 df 10 40
       2.2541432 -2.3493207 -2.2650337 2.2636433
000020 15 8c 0f c0 a7 e6 0d c0
       -2.242925 -2.217203

classifier.1.weight f4 [1, 10]
000000 c3 6f d7 3e f1 a9 4a bf 3c d4 eb be a9 c5 0f bf
       0.42077455 -0.7916556 -0.4606036 -0.5616098
000010 ff 8a 18 3f 89 7a 0b bf 69 7b 22 bf 69 c7 1a 3f
       0.5958709 -0.5448385 -0.6346956 0.60460526
000020 14 d2 d5 be 90 4a ee be
       -0.4176184 -0.46541262
