Results/Training_3/servo_model.pth (torch_old, 127392 bytes, 7 tensors)

features.0.weight f4 [64, 3, 10, 10]
0.031581 0.0005282059 -0.06393621 0.046767764 -0.0045607314 0.036511667 -0.05794397 0.021412414
-0.046676498 0.028606856 0.045253783 0.034958445 0.006072802 0.017842738 -0.0080275405 0.011957212
-0.0055196485 -0.030580984 -0.010537341 0.029928666 -0.019222602 0.021999476 -0.04963574 0.016832806
-0.057778113 -0.0182633 -0.06514864 -0.06440429 0.0050954595 -0.0088889655 -0.014135642 -0.0069412715
0.04314672 -0.048685536 -0.049774565 0.017864067 0.042868186 -0.0297761 -0.027346784 0.025916537
-0.0030138984 0.045279764 -0.013900497 0.0131388595 -0.05528793 0.008104638 0.016530512 -0.024405446
0.01718231 -0.03463392 -0.012075304 0.016420823 -0.00036300905 0.051555578 -0.009744428 -0.00017608757
-0.032620374 0.00015400311 0.02382618 -0.07046473 -0.02583387 0.014143044 -0.03689201 0.0013761288
-0.06059063 0.04103707 -0.015001779 -0.057058576 0.023030011 -0.016805375 -0.015491467 0.015026724
0.028513337 0.026659794 0.023883091 -0.028929051 -0.0362249 0.020892456 -0.031686034 -0.04751273
0.043130457 0.024054453 -0.04824867 -0.02597016 -0.015467261 0.047081478 0.012169365 -0.025186887
0.013589685 -0.04052075 0.016364465 -0.00041379663 -0.013820389 -0.03261899 0.050785813 -0.01996054
-0.05579575 -0.0034781543 -0.06041901 0.026049567 0.023409162 0.019243762 -0.04489652 -0.013706273
0.021172738 -0.0073750964 0.032224838 0.036362436 0.013883896 -0.0052212058 -0.05371596 0.029467223
0.04000331 0.041240074 0.040257484 0.02516699 0.03587438 -0.055957247 -0.039639913 -0.004854909
-0.03897453 -0.0025251692 -0.005182899 0.029209074 -0.024188986 -0.059614252 -0.038853057 -0.013287539
0.013315641 -0.02613617 0.057428 -0.052218035 0.04707878 -0.040015914 0.04473051 0.022806088
-0.039191928 -0.008036653 0.0006402696 -0.06700488 0.014447619 -0.043777276 -0.05499497 -0.019064872
0.012623834 0.0012072066 -0.01855765 -0.0049781767 0.04200538 -0.031232687 -0.011725488 -0.01957546
0.0244555 -0.03428947 0.056620747 0.030049171 0.030131774 -0.06293797 0.009803939 -0.019801792
-0.0553664 0.04231166 0.008094691 0.050666995 -0.012834508 0.032626472 -0.041326568 -0.015914408
-0.024071638 -0.03692639 -0.016515749 -0.034056723 -0.02145795 0.04641149 0.05289801 0.008434289
-0.05023836 0.004530682 -0.022500264 -0.06543405 -0.037201762 0.007026689 -0.031064643 -0.02405288
0.014786819 -0.05746414 -0.010003397 -0.0336787 -0.04572728 -0.0427159 -0.0031162994 -0.0142958425
0.03840052 -0.038388636 -0.014384323 -0.0461643 -0.035595804 0.011821418 -0.06358509 0.039292883
-0.01035656 -0.06476695 0.02924437 0.0091171935 -0.056410287 0.011313101 0.028728059 -0.026642961
0.007838036 -0.032019712 -0.042267807 -0.027147174 0.04621798 0.013756358 0.0082368925 0.05330329
0.029643772 -0.046842415 0.023263417 -0.0031685745 0.03209043 -0.013163524 0.04744685 -0.03814887
0.016073383 -0.03542883 -0.024060735 0.011201571 0.03676637 -0.0663902 0.020290414 -0.027593797
0.051885087 -0.0046118516 0.006858779 -0.011510331 0.005325667 0.029135827 0.01497531 -0.042941615
0.041927263 -0.036410157 -0.036778558 0.018038655 0.038452927 -0.051853772 -0.01962733 -0.016108397
0.028637968 -0.057924867 -0.05975399 0.043802984 -0.0048111086 0.038451537 -0.025682481 -0.042335648
00000000: 145b 013d 4c77 0a3a fdf0 82bd 8e8f 3f3d
00000010: 3072 95bb 428d 153d a856 6dbd 1669 af3c
00000020: db2f 3fbd ed58 ea3c 085c 393d 9630 0f3d
00000030: 5bfe c63b ef2a 923c f285 03bc 2fe8 433c
00000040: 2bde b4bb f984 fabc d0a4 2cbc f62c f53c
00000050: b878 9dbc 3f38 b43c d94e 4bbd f4e4 893c
00000060: bea8 6cbd eb9c 95bc a66c 85bd 65e6 83bd
00000070: d0f7 a63b 06a3 11bc 2e99 67bc 9b73 e3bb
00000080: 9dba 303d 7c6a 47bd 6ae0 4bbd aa57 923c
00000090: 8d96 2f3d 02ed f3bc 5d06 e0bc eb4e d43c
000000a0: d384 45bb 4677 393d e9be 63bc 5f44 573c
000000b0: 9975 62bd 51c9 043c ff6a 873c eeed c7bc
000000c0: eac1 8c3c 4cdc 0dbd 7fd7 45bc f684 863c
000000d0: 4052 beb9 f12b 533d 18a7 1fbc 26a4 38b9
000000e0: f19c 05bd e57b 2139 1f2f c33c d04f 90bd
000000f0: 8da1 d3bc 3ab8 673c 141c 17bd 385f b43a
00000100: e12d 78bd 7d16 283d 06ca 75bc 41b6 69bd
00000110: 6fa9 bc3c 6dab 89bc eccf 7dbc a632 763c
00000120: cd94 e93c a465 da3c 79a6 c33c 9efc ecbc
00000130: 9060 14bd a826 ab3c 37c9 01bd b59c 42bd
00000140: 90a9 303d d80d c53c 66a0 45bd 5fbf d4bc
00000150: 656a 7dbc 82d8 403d 0462 473c bb54 cebc
00000160: 45a7 5e3c 16f9 25bd c50e 863c d8f2 d8b9
00000170: ea6e 62bc 7d9b 05bd c904 503d 4984 a3bc
00000180: 168a 64bd bff1 63bb ed79 77bd e765 d53c
00000190: 92c4 bf3c 18a5 9d3c 6ae5 37bd 4790 60bc
000001a0: 7372 ad3c cbaa f1bb 31fe 033d c7f0 143d
000001b0: 4879 633c a616 abbb 4405 5cbd 3f65 f13c
000001c0: 83da 233d 5aeb 283d 08e5 243d 012b ce3c
000001d0: 04f1 123d 6d33 65bd 765d 22bd ee15 9fbb
000001e0: c2a3 1fbd 4f7d 25bb 4fd5 a9bb de47 ef3c
000001f0: fb27 c6bc 132e 74bd 6224 1fbd fab3 59bc
00000200: d929 5a3c 851b d6bc 9f39 6b3d 94e2 55bd
00000210: aed5 403d bae7 23bd 5737 373d d5d3 ba3c
00000220: b787 20bd 2aac 03bc c4d7 273a db39 89bd
00000230: b5b5 6c3c cd4f 33bd 6842 61bd ef2d 9cbc
00000240: 33d4 4e3c 223b 9e3a 3606 98bc f91f a3bb
00000250: d50d 2c3d b1db ffbc 431c 40bc b75c a0bc
00000260: e756 c83c 1e73 0cbd 28eb 673d ae29 f63c
00000270: e9d6 f63c 9fe5 80bd b3a0 203c 5e37 a2bc
00000280: e1c7 62bd fe4e 2d3d 989f 043c 3288 4f3d
00000290: d447 52bc 56a3 053d 0c46 29bd ef5e 82bc
000002a0: e231 c5bc 2040 17bd 094c 87bc 107f 0bbd
000002b0: 95c8 afbc f919 3e3d 95ab 583d f92f 0a3c
000002c0: bdc6 4dbd 1e76 943b 7952 b8bc 4a02 86bd
000002d0: e060 18bd 2440 e63b 477b febc 8c0a c5bc
000002e0: 6a44 723c 855f 6bbd 4ae5 23bc adf2 09bd
000002f0: 874c 3bbd def6 2ebd d43a 4cbb 1c39 6abc
00000300: dd49 1d3d 673d 1dbd 39ac 6bbc c716 3dbd
00000310: e8cc 11bd 9fae 413c e638 82bd 93f1 203d
00000320: 90ae 29bc 89a4 84bd e491 ef3c 4860 153c
00000330: 790e 67bd 965a 393c 1b57 eb3c 5742 dabc
00000340: 1b6b 003c 1a27 03bd 0221 2dbd c063 debc
00000350: 114f 3d3d 5962 613c 08f4 063c 8d54 5a3d
00000360: 7fd7 f23c d5dd 3fbd ec92 be3c dca7 4fbb
00000370: 4171 033d d2ab 57bc a157 423d fd41 1cbd
00000380: 54ac 833c d21d 11bd 051b c5bc cb86 373c
00000390: 5598 163d 96f7 87bd 1538 a63c 630c e2bc
000003a0: 7585 543d 041f 97bb 9cbf e03b d495 3cbc
000003b0: ef82 ae3b 42ae ee3c 015b 753c 8ce3 2fbd
000003c0: ecbb 2b3d d122 15bd 1da5 16bd cdc5 933c
000003d0: d180 1d3d 9f64 54bd 7fc9 a0bc c2f5 83bc
000003e0: 2c9a ea3c a042 6dbd 9ac0 74bd c26a 333d
000003f0: 81a6 9dbb 5c7f 1d3d 1164 d2bc 2568 2dbd

features.0.bias f4 [64]
-0.0043737884 0.10412831 -0.024257008 0.2668967 0.009544707 0.030797852 0.042458855 0.03021392
0.034041636 -0.354995 0.20854409 0.039402913 0.09401961 0.33335257 0.1138155 -0.64002806
0.023144688 0.08912733 -0.19233084 0.050847005 0.10921621 0.13496765 0.3230633 0.071874596
0.12132404 0.3693623 0.092408 -0.16186363 0.14381228 -0.021534164 -0.023612086 0.016471766
0.10926909 0.10509184 0.08083429 -0.29963756 -0.06264427 -0.3021347 0.09917695 0.23332345
0.07804164 -0.0891779 -0.03832112 -0.029020457 -0.4002313 -0.045408882 0.083434045 -0.19518663
0.12919398 0.0045496267 0.0016786467 0.078432105 -0.037790395 0.10151033 -0.23394495 -0.051579382
-0.36057603 0.33782077 -0.050183125 0.015278765 -0.11347174 0.11801594 0.03297993 0.0784854
00000000: ff51 8fbb 3941 d53d a2b6 c6bc afa6 883e
00000010: 6761 1c3c c74b fc3c 56e9 2d3d 2f83 f73c
00000020: 3e6f 0b3d e8c1 b5be 958c 553e f364 213d
00000030: 5a8d c03d 30ad aa3e 1a18 e93d e1d8 23bf
00000040: ee99 bd3c 6488 b63d 60f2 44be f344 503d
00000050: c0ac df3d f634 0a3e 8e68 a53e fd32 933d
00000060: bd78 f83d 0e1d bd3e 6840 bd3d 94bf 25be
00000070: 8743 133e 6a68 b0bc 226e c1bc ccef 863c
00000080: 79c8 df3d 643a d73d 738c a53d 186a 99be
00000090: a44b 80bd 66b1 9abe 491d cb3d 58ec 6e3e
000000a0: 4cd4 9f3d e7a2 b6bd 9bf6 1cbd 4fbc edbc
000000b0: 1eeb ccbe aafe 39bd 78df aa3d 01df 47be
000000c0: 6d4b 043e 0915 953b 0906 dc3a 03a1 a03d
000000d0: 1aca 1abd a6e4 cf3d 448f 6fbe e744 53bd
000000e0: 6c9d b8be d8f6 ac3e d28c 4dbd c953 7a3c
000000f0: df63 e8bd 57b2 f13d f715 073d f4bc a03d

features.3.weight f4 [10, 64, 3, 3]
-0.012009259 0.002953426 0.0172686 -0.009209739 0.02595161 0.018075185 0.034383763 0.03656886
0.028557112 -0.063286714 -0.058268033 -0.049507815 0.02392874 0.004068107 -0.04210697 -0.034661632
-0.01712517 -0.019855995 0.021875788 0.030748453 -0.012641942 0.03459129 -0.032059547 0.024252769
0.03605854 0.003455799 -0.0044998266 -0.046879888 -0.070591114 -0.012085093 -0.12985116 0.017311143
0.049911447 0.15541114 0.10932678 0.013820744 0.011948843 0.037893925 -0.078888595 -0.027098868
0.17551975 0.02360634 -0.08933994 0.039085712 -0.06210774 0.03248931 -0.037194584 -0.04008421
0.007378017 -0.024615586 0.026673662 -0.032898653 -0.025388157 0.014708991 -0.024610665 0.00059948897
-0.016244376 -0.03862673 0.004632117 -0.033018187 -0.012311902 -0.0043578167 -0.010756363 -0.027157582
-0.016172847 0.010287954 0.03453303 -0.00043089315 -0.030932248 -0.038894303 -0.0061847265 0.005271326
-0.001759953 0.03932666 0.026660936 -0.014659623 0.00896462 0.0053079533 -0.04139042 0.001702057
0.028552314 0.0757743 -0.008691415 0.095010765 0.03761978 0.026737504 0.0046815686 0.09888463
0.00054386357 0.046234395 0.025462285 -0.1337073 0.02451777 0.17933421 0.33254468 0.0016184382
0.033643607 0.09404005 0.11451205 0.020074459 0.011405271 0.003690965 0.020646557 -0.04113052
0.023862306 -0.037922658 -0.018456569 0.0136743635 -0.067122586 0.20677808 -0.004919219 0.041498154
-0.07899701 -0.008418358 -0.019875126 0.043512568 0.03595746 -0.012347232 -0.09584351 -0.03611961
-0.0314716 0.15237199 0.0767314 0.045243103 0.13404192 0.08641694 -0.04108593 0.010558131
0.010405867 -0.013590886 -0.016814554 -0.0126224905 -0.02486094 0.029490527 0.023447767 -0.03160748
-0.032252677 -0.024733152 0.0449073 -0.016311517 -0.030591922 -0.121785976 -0.019101067 -0.05333852
-0.021642854 -0.014013886 -0.0107686985 -0.020312369 0.020323332 -0.015427861 0.011054696 -0.016890775
-0.03781411 -0.022637662 0.03361641 0.011137897 0.022502212 -0.030977054 0.032390695 0.023876118
-0.004265958 -0.024551125 0.0019394619 0.042378478 0.15650854 0.1658369 0.019400695 0.0030443992
0.13342461 -0.003819952 0.0455895 -0.026625955 0.002839686 -0.016505305 0.011079492 -0.005421352
-0.016971031 0.04178419 0.053112518 0.027687877 -0.013404821 0.0016248301 -0.017609173 -0.031210728
-0.0008021833 0.0069433046 0.0016547387 0.024896866 -0.007585947 -0.024249665 0.009736249 0.014577852
-0.031870972 -0.033643678 0.030192018 0.0030813513 0.0012680736 0.021867432 0.046457026 -0.024194263
0.05879856 0.020113455 0.028284274 0.035146493 0.017649697 0.08209961 0.039512392 -0.024781208
0.047391098 0.045539998 0.037300073 -0.018661324 0.025863327 -0.006578823 -0.008572908 -0.0061991108
0.032601506 0.032960303 -0.091937184 0.11458219 -0.012823446 0.015533987 0.061413396 -0.037244547
-0.12938684 0.020802977 -0.012462436 0.06406153 0.037660394 -0.05435133 -0.006524703 -0.0073027383
0.068318516 -0.018929252 0.022481956 0.011457998 0.02388672 0.029014336 0.040096927 0.011166095
-0.0094179865 -0.028065044 0.017247684 -0.024279319 -0.10175903 0.14321679 -0.16375713 -0.19941626
-0.08195274 0.014014422 -0.04663683 0.24237327 -0.013552492 -0.023835 -0.042254515 0.00045823533
00000000: 7cc2 44bc 448e 413b e176 8d3c 72e4 16bc
00000010: 7998 d43c 6912 943c fdd5 0c3d 3bc9 153d
00000020: 9bf0 e93c 779c 81bd 76aa 6ebd b5c8 4abd
00000030: 3406 c43c c14d 853b 5c78 2cbd 5bf9 0dbd
00000040: 164a 8cbc 0aa9 a2bc da34 b33c 2ee4 fb3c
00000050: 2620 4fbc 99af 0d3d df50 03bd bead c63c
00000060: 1fb2 133d b07a 623b 4873 93bb 2005 40bd
00000070: 1392 90bd 8e00 46bc b4f7 04be 19d0 8d3c
00000080: f26f 4c3d 1924 1f3e b8e6 df3d 6770 623c
00000090: 14c5 433c a936 1b3d 5890 a1bd 72fe ddbc
000000a0: 73bb 333e 1562 c13c dcf7 b6bd 5718 203d
000000b0: b064 7ebd 8313 053d 5959 18bd 572f 24bd
000000c0: 4bc3 f13b a0a6 c9bc b982 da3c bdc0 06bd
000000d0: d3fa cfbc fbfd 703c 4e9c c9bc 0627 1d3a
000000e0: ed12 85bc 1037 1ebd 04c9 973b 143e 07bd
000000f0: dcb7 49bc 04cc 8ebb 753b 30bc 9479 debc
00000100: eb7c 84bc ce8e 283c 8272 0d3d 80e9 e1b9
00000110: a065 fdbc a24f 1fbd 3fa9 cabb 16bb ac3b
00000120: 39ae e6ba fe14 213d 0968 da3c ea2e 70bc
00000130: 57e0 123c 57ee ad3b 0089 29bd 8e17 df3a
00000140: 8be6 e93c 8e2f 9b3d 7066 0ebc 0195 c23d
00000150: 3317 1a3d 9c08 db3c d867 993b 0684 ca3d
00000160: 1192 0e3a 4760 3d3d 4896 d03c 91ea 08be
00000170: 7ed9 c83c 63a3 373e 4c43 aa3e c621 d43a
00000180: e1cd 093d 1298 c03d 4b85 ea3d 3173 a43c
00000190: 2cdd 3a3c 1ee4 713b f822 a93c 7a78 28bd
000001a0: e27a c33c ca54 1bbd 3b32 97bc 700a 603c
000001b0: 9177 89bd a2bd 533e 6631 a1bb f8f9 293d
000001c0: 2fc9 a1bd 27ed 09bc 29d1 a2bc 3c3a 323d
000001d0: 2148 133d 0b4c 4abc 9a49 c4bd 28f2 13bd
000001e0: 5de8 00bd 6707 1c3e 5a25 9d3d d550 393d
000001f0: 4942 093e 5dfb b03d b849 28bd 03fc 2c3c
00000200: 5f7d 2a3c 4fac 5ebc adbe 89bc 90ce 4ebc
00000210: 2ca9 cbbc 1e96 f13c 8815 c03c d876 01bd
00000220: 621b 04bd 2e9d cabc b8f0 373d bb9f 85bc
00000230: e99b fabc ed6a f9bd d779 9cbc 7e79 5abd
00000240: 5b4c b1bc 809a 65bc 326f 30bc 2066 a6bc
00000250: 1e7d a63c 24c5 7cbc c11e 353c 865e 8abc
00000260: f8e2 1abd 9e72 b9bc 5cb1 093d ba7b 363c
00000270: 8f56 b83c 97c3 fdbc 1bac 043d d997 c33c
00000280: 73c9 8bbb 711f c9bc 8b35 fe3a 0e95 2d3d
00000290: c643 203e 26d1 293e 35ee 9e3c 8b84 473b
000002a0: 76a0 083e 2958 7abb 0ebc 3a3d ad1e dabc
000002b0: 071a 3a3b 2236 87bc c286 353c 99a5 b1bb
000002c0: d506 8bbc e625 2b3d 838c 593d b0d1 e23c
000002d0: e59f 5bbc 40f8 d43a 1d41 90bc a4ad ffbc
000002e0: 9c49 52ba a984 e33b d1e3 d83a 83f4 cb3c
000002f0: 8993 f8bb 3ca7 c6bc ca84 1f3c f1d7 6e3c
00000300: 238b 02bd f4cd 09bd 4055 f73c 7ff0 493b
00000310: 7d35 a63a 5423 b33c b949 3e3d 0c33 c6bc
00000320: c2d6 703d f9c4 a43c 6cb4 e73c c5f5 0f3d
00000330: 1996 903c d723 a83d bfd7 213d f601 cbbc
00000340: 2b1d 423d 2688 3a3d f6c7 183d a2df 98bc
00000350: 54df d33c 2b93 d7bb 6275 0cbc e921 cbbb
00000360: 2889 053d 6201 073d 9049 bcbd 11aa ea3d
00000370: 6e19 52bc 4482 7e3c 9d8c 7b3d bd8d 18bd
00000380: fc7d 04be 016b aa3c 3f2f 4cbc b132 833d
00000390: c941 1a3d 809f 5ebd 2dcd d5bb cf4b efbb
000003a0: 94ea 8b3d 8511 9bbc 142c b83c 54ba 3b3c
000003b0: 15ae c33c 79af ed3c ad3c 243d fff1 363c
000003c0: e64d 1abc aae8 e5bc 044b 8d3c 6ce5 c6bc
000003d0: 0a67 d0bd 6ca7 123e f3af 27be c733 4cbe
000003e0: d7d6 a7bd bf9c 653c 4306 3fbd b330 783e
000003f0: 450b 5ebc 9e41 c3bc 1213 2dbd 4e3f f039

features.3.bias f4 [10]
-0.03668073 -0.027371418 0.04854387 0.028843071 0.05305479 0.052483685 0.04238298 -0.022626907
-0.017490461 -0.0010578766
00000000: 883e 16bd 063a e0bc f0d5 463d 4e48 ec3c
00000010: fb4f 593d 22f9 563d c799 2d3d 105c b9bc
00000020: 2848 8fbc 73a8 8aba

classifier.0.weight f4 [10, 640]
-0.040044177 0.05492801 0.005860586 -0.050895702 -0.070683256 -0.010335769 0.025147397 0.044633575
-0.0063989097 -0.034104723 -0.012336266 -0.046201214 0.037411723 -0.026971785 0.014330284 0.051453266
-0.029806862 -0.025107382 -0.04812597 0.039512083 0.003605392 -0.03227833 0.013151484 -0.025621543
0.043860942 -0.009286269 0.018521901 0.004548544 0.017270012 0.014300085 0.0012275337 -0.038733855
-0.06378378 -0.04515801 -0.021922769 -0.022376021 -0.00404495 -0.045985784 -0.02348346 0.03179915
-0.05485788 -0.05727094 -0.003207545 0.033352327 0.018289022 0.003175374 0.034565676 -0.00022354818
-0.014237007 0.013137294 0.026114328 -0.03438516 0.006645577 -0.0012251133 0.028937384 0.02727121
-0.07256752 -0.050314862 -0.040091198 -0.06490242 0.012036524 0.01099979 -0.03413571 0.019129125
-0.013704924 -0.015798252 0.03540968 -0.033135783 0.0191142 -0.025559427 0.0380421 -0.05617891
-0.0038923393 -0.007856024 -0.068565875 0.014201742 -0.02188855 0.0135816885 0.07070475 -0.090238415
-0.0037291276 -0.0037012966 0.02236764 -0.019052899 -0.05267161 -0.008126141 0.010428154 -0.034998693
-0.02146129 0.03665058 0.042439405 0.03847091 0.010324321 0.01713375 0.0015662664 0.01727751
-0.014284904 0.054864667 0.020786965 -0.0017308714 -0.030306555 -0.020530503 -0.02015289 0.055154447
0.02375002 -0.03029378 -0.01580858 0.007321674 -0.06727597 -0.0003881738 -0.03949204 -0.02762201
0.047413897 0.018724158 0.06336629 -0.0080095325 0.007103445 0.04917522 0.07252867 0.028803073
-0.011797513 0.018707102 0.10042904 0.021549933 0.06479873 0.09337028 0.009142939 0.041514345
-0.053746197 -0.020414008 -0.038510386 -0.04639591 0.065877855 0.048651524 0.03226599 -0.007023571
0.040903367 0.056024954 0.041064244 0.01970558 0.0036690517 0.010121404 -0.05250954 0.028053459
0.034799334 0.0012194789 -0.03370597 -0.0041367775 0.047193088 0.0024140535 0.029562058 0.028197715
-0.0030771622 0.022646658 -0.0026082105 -0.02039157 0.0018648544 0.04399698 0.017455576 -0.004413134
-0.0053013107 -0.013522508 0.010727515 0.021223083 -0.006408705 0.0039170333 0.002490776 -0.009669975
-0.05394455 -0.038998045 -0.056932006 -0.010344784 0.006068099 -0.022560293 0.021535365 -0.05910901
-0.017164772 0.010666247 -0.042765915 -0.01749914 -0.011078204 -0.02383067 -0.02252152 -0.03036506
-0.0067940233 0.037429016 0.013113027 -0.0332559 -0.047701668 -0.035192195 -0.0658454 -0.028321052
0.056726858 -0.014874641 -0.013527745 -0.016140861 0.0077430736 0.0010828635 -0.030967016 0.02396792
0.04076678 -0.029458655 -0.032876816 -0.004092425 -0.014356452 -0.0102196345 0.047514215 -0.022733402
0.012975361 0.0046704197 0.009323139 -0.06082268 -0.03908539 -0.009688635 0.039214827 -0.09675763
-0.018380275 -0.034314893 -0.038317684 -0.04847093 0.0015455129 0.05451684 0.008582693 -0.030302934
-0.03838986 -0.033005852 -0.0039960304 -0.003785628 -0.003339174 -0.03410391 -0.040325046 0.013642263
-0.003576472 0.00014724932 -0.03543165 0.01996488 -0.043314878 0.028758913 0.021424172 0.015902363
-0.00033721558 -0.007792514 -0.018187432 -0.043438897 -0.01112193 0.023936873 -0.006906971 -0.030208021
-0.05770541 0.022427514 0.007035832 0.029658651 -0.022206625 0.020093357 0.03974183 -0.0014783415
00000000: 5d05 24bd 31fc 603d 290a c03b 0378 50bd
00000010: 62c2 90bd 5b57 29bc ea01 ce3c b2d1 363d
00000020: f2ad d1bb 65b1 0bbd 0d1e 4abc 7c3d 3dbd
00000030: 093d 193d eff3 dcbc 91c9 6a3c a9c0 523d
00000040: 852d f4bc ffad cdbc bd1f 45bd 6cd7 213d
00000050: 7148 6c3b 4836 04bd 5279 573c 45e4 d1bc
00000060: 88a7 333d 6f25 18bc 3ebb 973c f40b 953b
00000070: d779 8d3c e74a 6a3c 32e5 a03a 64a7 1ebd
00000080: 12a1 82bd 9bf7 38bd 6197 b3bc eb4d b7bc
00000090: 808b 84bb 975b 3cbd 6360 c0bc d33f 023d
000000a0: a8b2 60bd ef94 6abd ad35 52bb 739c 083d
000000b0: dcd2 953c ef19 503b bd94 0d3d 4268 6ab9
000000c0: 5642 69bc ce3d 573c b7ed d53c 74d7 0cbd
000000d0: 24c3 d93b fb93 a0ba 180e ed3c df67 df3c
000000e0: 489e 94bd f516 4ebd ab36 24bd 8feb 84bd
000000f0: d734 453c 7738 343c e3d1 0bbd afb4 9c3c
00000100: 9e8a 60bc 566b 81bc be09 113d 63b9 07bd
00000110: 6295 9c3c 0162 d1bc 08d2 1b3d db1b 66bd
00000120: 9e16 7fbb 8eb6 00bc 446c 8cbd 6cae 683c
00000130: 9e4f b3bc bb85 5e3c a7cd 903d ebce b8bd
00000140: 6164 74bb 7491 72bb 573c b73c d314 9cbc
00000150: 30be 57bd 8123 05bc d9da 2a3c ca5a 0fbd
00000160: 96cf afbc eb1e 163d f1d4 2d3d ac93 1d3d
00000170: 5727 293c 145c 8c3c 2e4b cd3a 9189 8d3c
00000180: 3b0b 6abc c6b9 603d 6d49 aa3c 68de e2ba
00000190: 7445 f8bc 962f a8bc ac17 a5bc a1e9 613d
000001a0: 678f c23c a92a f8bc ff80 81bc a7ea ef3b
000001b0: fcc7 89bd ce83 cbb9 68c2 21bd 8e47 e2bc
000001c0: 1335 423d 6863 993c 2fc6 813d 6a3a 03bc
000001d0: 04c4 e83b f56b 493d e989 943d 6cf4 eb3c
000001e0: 5b4a 41bc a33f 993c bead cd3d 7c89 b03c
000001f0: 32b5 843d eb38 bf3d 44cc 153c f20a 2a3d
00000200: f924 5cbd 473b a7bc 11bd 1dbd a309 3ebd
00000210: f8ea 863d d246 473d 5829 043d fc25 e6bb
00000220: 4a8a 273d 6c7a 653d fb32 283d 996d a13c
00000230: 7974 703b 3fd4 253c 3e14 57bd 5ed0 e53c
00000240: bf89 0e3d ecd6 9f3a 450f 0abd ce8d 87bb
00000250: 8a4d 413d 1935 1e3b 212c f23c e5fe e63c
00000260: 37aa 49bb 7c85 b93c 83ee 2abb 390c a7bc
00000270: 216e f43a 2d36 343d fffe 8e3c 0d9c 90bb
00000280: 9eb6 adbb 828d 5dbc 76c2 2f3c 08dc ad3c
00000290: 1d00 d2bb 755a 803b 493c 233b d16e 1ebc
000002a0: f6f4 5cbd 6abc 1fbd 8931 69bd 2b7d 29bc
000002b0: e7d6 c63b 5dd0 b8bc ef6a b03c 4a1c 72bd
000002c0: 239d 8cbc 7cc1 2e3c 502b 2fbd 5b5a 8fbc
000002d0: 5b81 35bc 8a38 c3bc 0d7f b8bc 25c0 f8bc
000002e0: 66a0 debb 2b4f 193d 06d8 563c 5737 08bd
000002f0: d362 43bd b125 10bd f4d9 86bd 8d01 e8bc
00000300: 6c5a 683d c4b4 73bc 7aa3 5dbc d739 84bc
00000310: 9cb9 fd3b dfee 8d3a 8aae fdbc 5f58 c43c
00000320: 11fb 263d 4753 f1bc d7a9 06bd c019 86bb
00000330: 5337 6bbc 4170 27bc 449e 423d 663b babc
00000340: 9c96 543c 520a 993b 14c0 183c 3421 79bd
00000350: 0018 20bd 15bd 1ebc ba9f 203d dd28 c6bd
00000360: 3b92 96bc c68d 0cbd 01f3 1cbd 7489 46bd
00000370: cf92 ca3a 0d4d 5f3d 6c9e 0c3c dc3d f8bc
00000380: b03e 1dbd 2531 07bd 22f1 82bb 4c18 78bb
00000390: 0bd6 5abb 8bb0 0bbd e02b 25bd cc83 5f3c
000003a0: 3e63 6abb f066 1a39 c720 11bd 638d a33c
000003b0: f16a 31bd d097 eb3c bf81 af3c ac45 823c
000003c0: 4fcc b0b9 5858 ffbb cffd 94bc fcec 31bd
000003d0: c138 36bc 4317 c43c df53 e2bb d076 f7bc
000003e0: 825c 6cbd e8b9 b73c d68c e63b b3f6 f23c
000003f0: abea b5bc d39a a43c 54c8 223d e9c4 c1ba

classifier.0.bias f4 [10]
2.1200566 -2.2079532 -2.1284301 -2.0794525 2.1033242 -2.19909 -2.113896 2.1127162
-2.0944014 -2.067879
00000000: 02af 0740 1b4f 0dc0 3338 08c0 c015 05c0
00000010: dd9c 0640 e4bd 0cc0 124a 07c0 be36 0740
00000020: ac0a 06c0 2158 04c0

classifier.1.weight f4 [1, 10]
0.46745476 -0.82956135 -0.5064024 -0.61158425 0.6437209 -0.58438313 -0.6815277 0.6528618
-0.4672908 -0.51648724
00000000: 3b56 ef3e 225e 54bf 96a3 01bf c990 1cbf
00000010: e5ca 243f 229a 15bf 9978 2ebf f321 273f
00000020: bd40 efbe 8238 04bf
