Results/servo_model.pth (torch_old, 127392 bytes, 7 tensors)

features.0.weight f4 [64, 3, 10, 10]
0	0x3d015b14	0.031581
1	0x3a0a774c	0.0005282059
2	0xbd82f0fd	-0.06393621
3	0x3d3f8f8e	0.046767764
4	0xbb957230	-0.0045607314
5	0x3d158d42	0.036511667
6	0xbd6d56a8	-0.05794397
7	0x3caf6916	0.021412414
8	0xbd3f2fdb	-0.046676498
9	0x3cea58ed	0.028606856
10	0x3d395c08	0.045253783
11	0x3d0f3096	0.034958445
12	0x3bc6fe5b	0.006072802
13	0x3c922aef	0.017842738
14	0xbc0385f2	-0.0080275405
15	0x3c43e82f	0.011957212
16	0xbbb4de2b	-0.0055196485
17	0xbcfa84f9	-0.030580984
18	0xbc2ca4d0	-0.010537341
19	0x3cf52cf6	0.029928666
20	0xbc9d78b8	-0.019222602
21	0x3cb4383f	0.021999476
22	0xbd4b4ed9	-0.04963574
23	0x3c89e4f4	0.016832806
24	0xbd6ca8be	-0.057778113
25	0xbc959ceb	-0.0182633
26	0xbd856ca6	-0.06514864
27	0xbd83e665	-0.06440429
28	0x3ba6f7d0	0.0050954595
29	0xbc11a306	-0.0088889655
30	0xbc67992e	-0.014135642
31	0xbbe3739b	-0.0069412715
32	0x3d30ba9d	0.04314672
33	0xbd476a7c	-0.048685536
34	0xbd4be06a	-0.049774565
35	0x3c9257aa	0.017864067
36	0x3d2f968d	0.042868186
37	0xbcf3ed02	-0.0297761
38	0xbce0065d	-0.027346784
39	0x3cd44eeb	0.025916537
40	0xbb4584d3	-0.0030138984
41	0x3d397746	0.045279764
42	0xbc63bee9	-0.013900497
43	0x3c57445f	0.0131388595
44	0xbd627599	-0.05528793
45	0x3c04c951	0.008104638
46	0x3c876aff	0.016530512
47	0xbcc7edee	-0.024405446
48	0x3c8cc1ea	0.01718231
49	0xbd0ddc4c	-0.03463392
50	0xbc45d77f	-0.012075304
51	0x3c8684f6	0.016420823
52	0xb9be5240	-0.00036300905
53	0x3d532bf1	0.051555578
54	0xbc1fa718	-0.009744428
55	0xb938a426	-0.00017608757
56	0xbd059cf1	-0.032620374
57	0x39217be5	0.00015400311
58	0x3cc32f1f	0.02382618
59	0xbd904fd0	-0.07046473
60	0xbcd3a18d	-0.02583387
61	0x3c67b83a	0.014143044
62	0xbd171c14	-0.03689201
63	0x3ab45f38	0.0013761288
64	0xbd782de1	-0.06059063
65	0x3d28167d	0.04103707
66	0xbc75ca06	-0.015001779
67	0xbd69b641	-0.057058576
68	0x3cbca96f	0.023030011
69	0xbc89ab6d	-0.016805375
70	0xbc7dcfec	-0.015491467
71	0x3c7632a6	0.015026724
72	0x3ce994cd	0.028513337
73	0x3cda65a4	0.026659794
74	0x3cc3a679	0.023883091
75	0xbcecfc9e	-0.028929051
76	0xbd146090	-0.0362249
77	0x3cab26a8	0.020892456
78	0xbd01c937	-0.031686034
79	0xbd429cb5	-0.04751273
80	0x3d30a990	0.043130457
81	0x3cc50dd8	0.024054453
82	0xbd45a066	-0.04824867
83	0xbcd4bf5f	-0.02597016
84	0xbc7d6a65	-0.015467261
85	0x3d40d882	0.047081478
86	0x3c476204	0.012169365
87	0xbcce54bb	-0.025186887
88	0x3c5ea745	0.013589685
89	0xbd25f916	-0.04052075
90	0x3c860ec5	0.016364465
91	0xb9d8f2d8	-0.00041379663
92	0xbc626eea	-0.013820389
93	0xbd059b7d	-0.03261899
94	0x3d5004c9	0.050785813
95	0xbca38449	-0.01996054
96	0xbd648a16	-0.05579575
97	0xbb63f1bf	-0.0034781543
98	0xbd7779ed	-0.06041901
99	0x3cd565e7	0.026049567
100	0x3cbfc492	0.023409162
101	0x3c9da518	0.019243762
102	0xbd37e56a	-0.04489652
103	0xbc609047	-0.013706273
104	0x3cad7273	0.021172738
105	0xbbf1aacb	-0.0073750964
106	0x3d03fe31	0.032224838
107	0x3d14f0c7	0.036362436
108	0x3c637948	0.013883896
109	0xbbab16a6	-0.0052212058
110	0xbd5c0544	-0.05371596
111	0x3cf1653f	0.029467223
112	0x3d23da83	0.04000331
113	0x3d28eb5a	0.041240074
114	0x3d24e508	0.040257484
115	0x3cce2b01	0.02516699
116	0x3d12f104	0.03587438
117	0xbd65336d	-0.055957247
118	0xbd225d76	-0.039639913
119	0xbb9f15ee	-0.004854909
120	0xbd1fa3c2	-0.03897453
121	0xbb257d4f	-0.0025251692
122	0xbba9d54f	-0.005182899
123	0x3cef47de	0.029209074
124	0xbcc627fb	-0.024188986
125	0xbd742e13	-0.059614252
126	0xbd1f2462	-0.038853057
127	0xbc59b3fa	-0.013287539
128	0x3c5a29d9	0.013315641
129	0xbcd61b85	-0.02613617
130	0x3d6b399f	0.057428
131	0xbd55e294	-0.052218035
132	0x3d40d5ae	0.04707878
133	0xbd23e7ba	-0.040015914
134	0x3d373757	0.04473051
135	0x3cbad3d5	0.022806088
136	0xbd2087b7	-0.039191928
137	0xbc03ac2a	-0.008036653
138	0x3a27d7c4	0.0006402696
139	0xbd8939db	-0.06700488
140	0x3c6cb5b5	0.014447619
141	0xbd334fcd	-0.043777276
142	0xbd614268	-0.05499497
143	0xbc9c2def	-0.019064872
144	0x3c4ed433	0.012623834
145	0x3a9e3b22	0.0012072066
146	0xbc980636	-0.01855765
147	0xbba31ff9	-0.0049781767
148	0x3d2c0dd5	0.04200538
149	0xbcffdbb1	-0.031232687
150	0xbc401c43	-0.011725488
151	0xbca05cb7	-0.01957546
152	0x3cc856e7	0.0244555
153	0xbd0c731e	-0.03428947
154	0x3d67eb28	0.056620747
155	0x3cf629ae	0.030049171
156	0x3cf6d6e9	0.030131774
157	0xbd80e59f	-0.06293797
158	0x3c20a0b3	0.009803939
159	0xbca2375e	-0.019801792
160	0xbd62c7e1	-0.0553664
161	0x3d2d4efe	0.04231166
162	0x3c049f98	0.008094691
163	0x3d4f8832	0.050666995
164	0xbc5247d4	-0.012834508
165	0x3d05a356	0.032626472
166	0xbd29460c	-0.041326568
167	0xbc825eef	-0.015914408
168	0xbcc531e2	-0.024071638
169	0xbd174020	-0.03692639
170	0xbc874c09	-0.016515749
171	0xbd0b7f10	-0.034056723
172	0xbcafc895	-0.02145795
173	0x3d3e19f9	0.04641149
174	0x3d58ab95	0.05289801
175	0x3c0a2ff9	0.008434289
176	0xbd4dc6bd	-0.05023836
177	0x3b94761e	0.004530682
178	0xbcb85279	-0.022500264
179	0xbd86024a	-0.06543405
180	0xbd1860e0	-0.037201762
181	0x3be64024	0.007026689
182	0xbcfe7b47	-0.031064643
183	0xbcc50a8c	-0.02405288
184	0x3c72446a	0.014786819
185	0xbd6b5f85	-0.05746414
186	0xbc23e54a	-0.010003397
187	0xbd09f2ad	-0.0336787
188	0xbd3b4c87	-0.04572728
189	0xbd2ef6de	-0.0427159
190	0xbb4c3ad4	-0.0031162994
191	0xbc6a391c	-0.0142958425
192	0x3d1d49dd	0.03840052
193	0xbd1d3d67	-0.038388636
194	0xbc6bac39	-0.014384323
195	0xbd3d16c7	-0.0461643
196	0xbd11cce8	-0.035595804
197	0x3c41ae9f	0.011821418
198	0xbd8238e6	-0.06358509
199	0x3d20f193	0.039292883
200	0xbc29ae90	-0.01035656
201	0xbd84a489	-0.06476695
202	0x3cef91e4	0.02924437
203	0x3c156048	0.0091171935
204	0xbd670e79	-0.056410287
205	0x3c395a96	0.011313101
206	0x3ceb571b	0.028728059
207	0xbcda4257	-0.026642961
208	0x3c006b1b	0.007838036
209	0xbd03271a	-0.032019712
210	0xbd2d2102	-0.042267807
211	0xbcde63c0	-0.027147174
212	0x3d3d4f11	0.04621798
213	0x3c616259	0.013756358
214	0x3c06f408	0.0082368925
215	0x3d5a548d	0.05330329
216	0x3cf2d77f	0.029643772
217	0xbd3fddd5	-0.046842415
218	0x3cbe92ec	0.023263417
219	0xbb4fa7dc	-0.0031685745
220	0x3d037141	0.03209043
221	0xbc57abd2	-0.013163524
222	0x3d4257a1	0.04744685
223	0xbd1c41fd	-0.03814887
224	0x3c83ac54	0.016073383
225	0xbd111dd2	-0.03542883
226	0xbcc51b05	-0.024060735
227	0x3c3786cb	0.011201571
228	0x3d169855	0.03676637
229	0xbd87f796	-0.0663902
230	0x3ca63815	0.020290414
231	0xbce20c63	-0.027593797
232	0x3d548575	0.051885087
233	0xbb971f04	-0.0046118516
234	0x3be0bf9c	0.006858779
235	0xbc3c95d4	-0.011510331
236	0x3bae82ef	0.005325667
237	0x3ceeae42	0.029135827
238	0x3c755b01	0.01497531
239	0xbd2fe38c	-0.042941615
240	0x3d2bbbec	0.041927263
241	0xbd1522d1	-0.036410157
242	0xbd16a51d	-0.036778558
243	0x3c93c5cd	0.018038655
244	0x3d1d80d1	0.038452927
245	0xbd54649f	-0.051853772
246	0xbca0c97f	-0.01962733
247	0xbc83f5c2	-0.016108397
248	0x3cea9a2c	0.028637968
249	0xbd6d42a0	-0.057924867
250	0xbd74c09a	-0.05975399
251	0x3d336ac2	0.043802984
252	0xbb9da681	-0.0048111086
253	0x3d1d7f5c	0.038451537
254	0xbcd26411	-0.025682481
255	0xbd2d6825	-0.042335648

features.0.bias f4 [64]
0	0xbb8f51ff	-0.0043737884
1	0x3dd54139	0.10412831
2	0xbcc6b6a2	-0.024257008
3	0x3e429177	0.19000803
4	0xbb856b2f	-0.004071615
5	0x3cfc4bc7	0.030797852
6	0x3d2de956	0.042458855
7	0x3cf7832f	0.03021392
8	0x3d0b6f3e	0.034041636
9	0xbdfd981b	-0.123825274
10	0x3da713f3	0.08158102
11	0x3d2164f3	0.039402913
12	0x3d686d18	0.056744665
13	0x3e3f7fc8	0.18701088
14	0x3de9181a	0.1138155
15	0xbeafa332	-0.34304196
16	0x3cbd99ee	0.023144688
17	0x3db68864	0.08912733
18	0xbdc86e97	-0.09786718
19	0x3d5044f3	0.050847005
20	0x3ddfacc0	0.10921621
21	0x3e0a34f6	0.13496765
22	0x3e9315fa	0.28727704
23	0x3d9332fd	0.071874596
24	0x3df4797b	0.11937233
25	0x3e482f07	0.1954919
26	0x3dbd4068	0.092408
27	0xbdf9d84e	-0.1219946
28	0x3e134387	0.14381228
29	0xbcb0686a	-0.021534164
30	0xbcc16e22	-0.023612086
31	0x3c86efcc	0.016471766
32	0x3ddfc879	0.10926909
33	0x3ddbca69	0.10731966
34	0x3da58c73	0.08083429
35	0xbdec4970	-0.115374446
36	0xbd91d5d4	-0.071208626
37	0xbdf6ef96	-0.12057416
38	0x3dcb1d49	0.09917695
39	0x3df564be	0.11982106
40	0x3d30f0a4	0.043198243
41	0x3ded046c	0.11573109
42	0xbd1cf69b	-0.03832112
43	0xbcedbc4f	-0.029020457
44	0xbe30046b	-0.17189185
45	0x3cab7ca8	0.020933464
46	0x3dd24157	0.10266369
47	0xbcb6436e	-0.02224895
48	0x3e044b6d	0.12919398
49	0x3d18b4b5	0.03728171
50	0x3adc0609	0.0016786467
51	0x3da0a103	0.078432105
52	0xbd1aca1a	-0.037790395
53	0x3dcfe4a6	0.10151033
54	0x3c31ac8f	0.010844364
55	0xbd5344e7	-0.051579382
56	0xbe62b895	-0.22140725
57	0x3e7a3cdd	0.2443728
58	0xbd4d8cd2	-0.050183125
59	0x3c7a53c9	0.015278765
60	0x3cc09506	0.02350856
61	0x3df1b257	0.11801594
62	0x3d0715f7	0.03297993
63	0xbb8469b4	-0.004040921

features.3.weight f4 [10, 64, 3, 3]
0	0xbc44c27c	-0.012009259
1	0x3b418e44	0.002953426
2	0x3c8d76e1	0.0172686
3	0xbc16e472	-0.009209739
4	0x3cd49879	0.02595161
5	0x3c941269	0.018075185
6	0x3d0cd5fd	0.034383763
7	0x3d15c93b	0.03656886
8	0x3ce9f09b	0.028557112
9	0xbd819c77	-0.063286714
10	0xbd6eaa76	-0.058268033
11	0xbd4ac8b5	-0.049507815
12	0x3cc40634	0.02392874
13	0x3b854dc1	0.004068107
14	0xbd2c785c	-0.04210697
15	0xbd0df95b	-0.034661632
16	0xbc8c4a16	-0.01712517
17	0xbca2a90a	-0.019855995
18	0x3cb334da	0.021875788
19	0x3cfbe42e	0.030748453
20	0xbc4f2026	-0.012641942
21	0x3d0daf99	0.03459129
22	0xbd0350df	-0.032059547
23	0x3cc6adbe	0.024252769
24	0x3d13b21f	0.03605854
25	0x3b627ab0	0.003455799
26	0xbb937348	-0.0044998266
27	0xbd1569c8	-0.036477834
28	0xbdc87cc3	-0.097894214
29	0xbd16d89c	-0.03682767
30	0xbd67fe0f	-0.056638774
31	0x3d57808c	0.052612826
32	0x3c80f950	0.015743881
33	0x3da866e4	0.0822275
34	0x3e2c3711	0.16817881
35	0x3c996878	0.018726572
36	0x3a876ae4	0.0010331539
37	0x3d772aea	0.06034366
38	0x3c0d6727	0.0086305505
39	0xbd35d278	-0.04439017
40	0x3d95915a	0.07303114
41	0x3dc5dcef	0.0966128
42	0xbd0b20ab	-0.0339667
43	0x3d82b2ff	0.06381797
44	0xbd9ba017	-0.07598894
45	0x3d051383	0.03248931
46	0xbd185959	-0.037194584
47	0xbd242f57	-0.04008421
48	0x3bf1c34b	0.007378017
49	0xbcc9a6a0	-0.024615586
50	0x3cda82b9	0.026673662
51	0xbd06c0bd	-0.032898653
52	0xbccffad3	-0.025388157
53	0x3c70fdfb	0.014708991
54	0xbcc99c4e	-0.024610665
55	0x3a1d2706	0.00059948897
56	0xbc8512ed	-0.016244376
57	0xbd1e3710	-0.03862673
58	0x3b97c904	0.004632117
59	0xbd073e14	-0.033018187
60	0xbc49b7dc	-0.012311902
61	0xbb8ecc04	-0.0043578167
62	0xbc303b75	-0.010756363
63	0xbcde7994	-0.027157582
64	0xbc847ceb	-0.016172847
65	0x3c288ece	0.010287954
66	0x3d0d7282	0.03453303
67	0xb9e1e980	-0.00043089315
68	0xbcfd65a0	-0.030932248
69	0xbd1f4fa2	-0.038894303
70	0xbbcaa93f	-0.0061847265
71	0x3bacbb16	0.005271326
72	0xbae6ae39	-0.001759953
73	0x3d2114fe	0.03932666
74	0x3cda6809	0.026660936
75	0xbc702eea	-0.014659623
76	0x3c12e057	0.00896462
77	0x3badee57	0.0053079533
78	0xbd298900	-0.04139042
79	0x3adf178e	0.001702057
80	0x3ce9e68b	0.028552314
81	0x3d271ab0	0.040796936
82	0x3a903dbf	0.001100473
83	0x3d6adc60	0.057339072
84	0x3d8e7606	0.06956105
85	0x3d32b42c	0.043628857
86	0xbb5e33eb	-0.0033905457
87	0x3d7a5a34	0.06112118
88	0x3ca7921f	0.020455418
89	0x3ce9aec8	0.028525725
90	0x3c329b66	0.010901308
91	0xbe07d79e	-0.13265845
92	0xbcf0e230	-0.02940473
93	0x3dc1949d	0.09452174
94	0x3e3368b0	0.17520404
95	0xbc179f6b	-0.009254317
96	0x3ca809ea	0.02051254
97	0x3d1e7532	0.038685985
98	0x3dc6654c	0.096872896
99	0x3ca47331	0.020074459
100	0x3c3add2c	0.011405271
101	0x3b71e41e	0.003690965
102	0x3ca922f8	0.020646557
103	0xbd28787a	-0.04113052
104	0x3cc37ae2	0.023862306
105	0xbd1b54ca	-0.037922658
106	0xbc97323b	-0.018456569
107	0x3c600a70	0.0136743635
108	0xbda35138	-0.079744756
109	0x3d759d59	0.05996451
110	0xbd0e183e	-0.034691088
111	0xbccfaecb	-0.025351902
112	0x3d0059f5	0.03133579
113	0x3bec7c74	0.0072169844
114	0x3cd549e5	0.026036212
115	0xbc08514c	-0.008320164
116	0x3d62f627	0.05541053
117	0xba97d9c4	-0.0011585285
118	0xbd2bf215	-0.041978914
119	0x3d5bcd70	0.053662717
120	0xbbbdbda7	-0.0057904306
121	0x3d817bf2	0.06322469
122	0x3d6f833e	0.05847477
123	0x3d5fff66	0.054686926
124	0x3cbcee85	0.023062954
125	0x3d9217ac	0.07133421
126	0xbd2849b8	-0.04108593
127	0x3c2cfc03	0.010558131
128	0x3c2a7d5f	0.010405867
129	0xbc5eac4f	-0.013590886
130	0xbc89bead	-0.016814554
131	0xbc4ece90	-0.0126224905
132	0xbccba92c	-0.02486094
133	0x3cf1961e	0.029490527
134	0x3cc01588	0.023447767
135	0xbc599370	-0.013279781
136	0x3c77880c	0.01510812
137	0xbb77ffe1	-0.0037841725
138	0x3cd1f944	0.025631554
139	0xbca3e983	-0.020008808
140	0xbb949655	-0.0045345225
141	0xbd9aa066	-0.07550125
142	0x3d222427	0.03958526
143	0xbd4217c0	-0.04738593
144	0xbcb14c5b	-0.021642854
145	0xbc659a80	-0.014013886
146	0xbc306f32	-0.0107686985
147	0xbca66620	-0.020312369
148	0x3ca67d1e	0.020323332
149	0xbc7cc524	-0.015427861
150	0x3c351ec1	0.011054696
151	0xbc8a5e86	-0.016890775
152	0xbd1ae2f8	-0.03781411
153	0xbcb9729e	-0.022637662
154	0x3d09b15c	0.03361641
155	0x3c367bba	0.011137897
156	0x3cb8568f	0.022502212
157	0xbcfdc397	-0.030977054
158	0x3d04ac1b	0.032390695
159	0x3cc397d9	0.023876118
160	0xbb8bc973	-0.004265958
161	0xbcc91f71	-0.024551125
162	0x3cdd0d1f	0.026983796
163	0x3d55a859	0.052162502
164	0x3dc1299a	0.09431763
165	0x3e06e643	0.13173775
166	0x3c52c82a	0.012865106
167	0x3b8ec124	0.0043565203
168	0x3da0a84a	0.078445986
169	0x3cc3451e	0.023836669
170	0x3a355aed	0.0006918151
171	0xbcda1ead	-0.026625955
172	0x3b3a1a07	0.002839686
173	0xbc873622	-0.016505305
174	0x3c3586c2	0.011079492
175	0xbbb1a599	-0.005421352
176	0xbc8b06d5	-0.016971031
177	0x3d2b25e6	0.04178419
178	0x3d598c83	0.053112518
179	0x3ce2d1b0	0.027687877
180	0xbc5b9fe5	-0.013404821
181	0x3ad4f840	0.0016248301
182	0xbc90411d	-0.017609173
183	0xbcffada4	-0.031210728
184	0xba52499c	-0.0008021833
185	0x3be384a9	0.0069433046
186	0x3ad8e3d1	0.0016547387
187	0x3ccbf483	0.024896866
188	0xbbf89389	-0.007585947
189	0xbcc6a73c	-0.024249665
190	0x3c1f84ca	0.009736249
191	0x3c6ed7f1	0.014577852
192	0xbd028b23	-0.031870972
193	0xbd09cdf4	-0.033643678
194	0x3cf75540	0.030192018
195	0x3b49f07f	0.0030813513
196	0x3aa6357d	0.0012680736
197	0x3cb32354	0.021867432
198	0x3c7ed4a4	0.015553627
199	0xbcd37118	-0.025810763
200	0x3d0946b1	0.033514682
201	0x3d1ffd6a	0.039060034
202	0x3c65d33b	0.014027412
203	0x3e05add9	0.13054599
204	0x3d0cd3dd	0.034381736
205	0x3daab1ef	0.083347194
206	0x3b53c44f	0.0032313054
207	0xbccb01f6	-0.024781208
208	0x3d421d2b	0.047391098
209	0x3d3a8826	0.045539998
210	0x3d18c7f6	0.037300073
211	0xbc98dfa2	-0.018661324
212	0x3cd3df54	0.025863327
213	0xbbd7932b	-0.006578823
214	0xbc0c7562	-0.008572908
215	0xbbcb21e9	-0.0061991108
216	0x3d25ceb5	0.040480334
217	0x3d290e53	0.041273426
218	0xbccba8ad	-0.024860704
219	0x3d4b318f	0.04960781
220	0x3d348e20	0.044080853
221	0xbb4c3e35	-0.0031165008
222	0x3cea67e5	0.028613994
223	0xbce5d09c	-0.028053574
224	0xbdf4bf70	-0.11950576
225	0x3c1a67cb	0.00942416
226	0x3b83b447	0.0040192935
227	0xbcd49a9c	-0.02595263
228	0x39e25e33	0.00043176263
229	0xbcdd768e	-0.02703407
230	0xbd30596f	-0.04305404
231	0xbaaae310	-0.0013037641
232	0x3dc4eb05	0.09615139
233	0x3c0db6c2	0.00864953
234	0x3cb82c14	0.022481956
235	0x3c3bba54	0.011457998
236	0x3cc3ae15	0.02388672
237	0x3cedaf79	0.029014336
238	0x3d243cad	0.040096927
239	0x3c36f1ff	0.011166095
240	0xbc1a4de6	-0.0094179865
241	0xbce5e8aa	-0.028065044
242	0x3c8d4b04	0.017247684
243	0xbd4a218a	-0.04934839
244	0xbbbee712	-0.0058258856
245	0x3c0e79a9	0.008695998
246	0xbe33ed75	-0.17571051
247	0xbbec0d39	-0.0072037247
248	0xbc3bc585	-0.011460667
249	0xbce9e8b7	-0.02855335
250	0xbd8ba531	-0.06818617
251	0x3d5e90f0	0.054337442
252	0xbc5e0b45	-0.013552492
253	0xbcc3419e	-0.023835
254	0xbd2d1312	-0.042254515
255	0x39f03f4e	0.00045823533

features.3.bias f4 [10]
0	0xbc5a5143	-0.013325038
1	0xbc442ef5	-0.011974086
2	0x3d21116d	0.03932326
3	0x3c890bfe	0.016729351
4	0x3d1216f0	0.035666406
5	0x3d349d96	0.0440956
6	0x3ce2bba3	0.027677363
7	0xbc944f19	-0.018104123
8	0x3bda5153	0.0066625266
9	0xbc554802	-0.013017656

classifier.0.weight f4 [10, 640]
0	0xbd33fceb	-0.043942373
1	0x3d2c0600	0.04199791
2	0x3baa8bb8	0.005204644
3	0xbd6e1836	-0.058128558
4	0xbd5246a3	-0.051336896
5	0xbd2b19cc	-0.04177265
6	0x3d3ce151	0.046113316
7	0x3cc8567b	0.0244553
8	0xbc4c1e98	-0.012458466
9	0xbbdcbec3	-0.0067366078
10	0x3b62dbfe	0.003461599
11	0xbd143b47	-0.036189344
12	0x3c8b002f	0.016967861
13	0x3c6b4521	0.014359743
14	0x3c7b3e7a	0.01533472
15	0x3d72dda7	0.059293415
16	0xbcc7e9bf	-0.024403451
17	0xbd343b3d	-0.044001807
18	0xbce7706b	-0.028251847
19	0x3cb0fe82	0.021605734
20	0xbc00f47e	-0.0078707915
21	0xbd1426e7	-0.036169913
22	0x3c294dfe	0.010333536
23	0xbceb92b0	-0.02875647
24	0x3ccbdf5f	0.024886785
25	0xbc43725e	-0.011929123
26	0x3bcf7925	0.00633158
27	0x3b669b63	0.0035187833
28	0x3cb20b23	0.021733826
29	0x3c9cb2cb	0.019128224
30	0xbb1bc122	-0.002376624
31	0xbd0c6140	-0.034272432
32	0xbd8284b4	-0.06372967
33	0xbd08d48b	-0.03340582
34	0xbca29e41	-0.019850852
35	0xbd10db93	-0.035365652
36	0x394571e5	0.00018829813
37	0xbd132258	-0.035921425
38	0xbd002a13	-0.031290125
39	0x3d14f2a9	0.03636423
40	0xbd7bc187	-0.06146386
41	0xbd7535d2	-0.05986578
42	0xbc57ad13	-0.013163823
43	0x3ccbb2fb	0.024865618
44	0x3b6a3457	0.0035736763
45	0xbb976b83	-0.0046209707
46	0x3d34c5c4	0.044133916
47	0xbbc2f3f7	-0.005949493
48	0xbd006cf5	-0.03135391
49	0x3cc4d0aa	0.02402528
50	0x3ccf24f1	0.02528617
51	0xbd1eef56	-0.038802467
52	0x3ca9b05b	0.020713976
53	0x3b0fb9f1	0.0021930898
54	0x3cb42755	0.021991411
55	0x3d2542e5	0.040347
56	0xbd58be57	-0.052915897
57	0xbd5da5db	-0.05411325
58	0xbd1d793b	-0.038445693
59	0xbd8baed9	-0.06820459
60	0x3c03278e	0.008005036
61	0x3c3e8bd6	0.011630019
62	0xbc20c20c	-0.009811889
63	0x3c80de78	0.015731081
64	0xbcbb0380	-0.022828817
65	0xbca81253	-0.02051655
66	0x3cc6b6ca	0.024257082
67	0xbcad038b	-0.021119853
68	0x3c9f493d	0.019444102
69	0xbd1cf4e2	-0.038319476
70	0x3d56f7d1	0.05248243
71	0xbd8a84df	-0.067636244
72	0x3c006d66	0.007838583
73	0xbc3b09f7	-0.01141595
74	0xbd99f951	-0.075182565
75	0x3c0f31f8	0.008739941
76	0x3b814c02	0.0039458284
77	0x3b22ad67	0.0024822594
78	0x3d5f46ea	0.05451099
79	0xbdb94924	-0.090471536
80	0xbc2c9e24	-0.010535751
81	0x3ca0c888	0.01962687
82	0x3c86b182	0.016442064
83	0xbb9ed7a4	-0.0048474837
84	0xbd5c2138	-0.053742617
85	0xbc85f891	-0.016353877
86	0x3c648427	0.013947523
87	0xbcdfc81d	-0.027317101
88	0xbd06b2b7	-0.03288528
89	0x3cc17197	0.023613734
90	0x3d0b2dcf	0.033979233
91	0x3bb74f23	0.0055941506
92	0x3c440138	0.011963181
93	0x3c8fb01d	0.017540032
94	0xbaeb3212	-0.0017943999
95	0x3cafaf95	0.021446029
96	0x3ba8ccda	0.0051513733
97	0x3d241eb1	0.040068332
98	0x3cf9a398	0.030473515
99	0xbc497c6d	-0.012297732
100	0xbc42135d	-0.011845437
101	0xbc9c53a4	-0.019082852
102	0xbd0407a9	-0.032233868
103	0x3d81892b	0.06324991
104	0x3d1c0711	0.038092677
105	0xbcd7ae57	-0.026328249
106	0x39a2ebec	0.00031074823
107	0x3c67c476	0.014145961
108	0xbd5fc95d	-0.054635394
109	0x3c4f81f9	0.012665265
110	0xbd1fe3eb	-0.03903572
111	0xbcf7a805	-0.030231485
112	0x3d5cc1ad	0.05389564
113	0x3c5aebc4	0.013361875
114	0x3d488da9	0.048963223
115	0xb9edfd8d	-0.00045393073
116	0x3b75f7c7	0.003753172
117	0x3d38060c	0.04492764
118	0x3d9799ca	0.0740238
119	0x3cea1646	0.028575074
120	0x3be3b796	0.0069493754
121	0x3cd80780	0.026370764
122	0x3dc9fd7a	0.098628
123	0x3d23b9ad	0.039971996
124	0x3d5d69b4	0.054055884
125	0x3daf43af	0.085578315
126	0x3caadbc5	0.020856747
127	0x3c81a97f	0.015827892
128	0xbd64c337	-0.055850234
129	0xbcbe885f	-0.023258386
130	0xbd1b41d3	-0.03790457
131	0xbd0fb135	-0.035081107
132	0x3d2e5308	0.042559654
133	0x3d67e6fc	0.05661677
134	0x3d466684	0.04843761
135	0x3b9d7dae	0.004806242
136	0x3d2a2288	0.041536838
137	0x3d80f2b2	0.062962905
138	0x3ca0c2c9	0.01962413
139	0x3b34f6b6	0.0027612871
140	0x3cc6f628	0.024287298
141	0x3cd68b2b	0.026189407
142	0xbd60bc3f	-0.054867025
143	0x3c5ffd24	0.013671193
144	0x3cf8e92b	0.03038462
145	0xbbbecad9	-0.005822521
146	0xbca0f468	-0.019647792
147	0xbc2322dc	-0.009957042
148	0x3d5134da	0.051075794
149	0x3c9b8244	0.018983014
150	0x3c385c22	0.011252435
151	0x3d1aeda7	0.0378243
152	0xbc7a444e	-0.015275074
153	0x3d16e729	0.036841545
154	0xbc9b7554	-0.018976845
155	0xbca05f7a	-0.019576777
156	0xbb41b81d	-0.0029559203
157	0x3cf75da5	0.03019602
158	0x3c9d7aa6	0.019223522
159	0x3c6f3a17	0.014601252
160	0xbc32ae54	-0.010905821
161	0xbbcd4788	-0.0062646307
162	0x3c53b628	0.012921847
163	0x3bfc6726	0.007702726
164	0xbbd876fe	-0.006605982
165	0x3bf40d53	0.0074478774
166	0xbc107d3c	-0.008818921
167	0xbcb73328	-0.02236326
168	0xbd45481b	-0.04816447
169	0xbd18d26b	-0.037310045
170	0xbd7b5daf	-0.06136864
171	0xbc5b2546	-0.013375586
172	0x3c989257	0.018624468
173	0xbc487581	-0.012235046
174	0x3bcb164a	0.0061977254
175	0xbd46d122	-0.04853929
176	0xbcd87093	-0.026420867
177	0x3bb9eea0	0.0056741983
178	0xbd3f86d3	-0.046759438
179	0xbcac9879	-0.021068798
180	0xbc3a0471	-0.011353598
181	0xbd073bbb	-0.033015948
182	0xbc94d6a2	-0.018168751
183	0xbd2f6f39	-0.04283068
184	0xbaf95153	-0.0019021429
185	0x3cafa136	0.021439176
186	0x3c1e8b2e	0.009676738
187	0xbcaad855	-0.020855108
188	0xbd35c0b4	-0.04437323
189	0xbd22d8f8	-0.0397577
190	0xbd226489	-0.03964666
191	0xbc225de9	-0.009910085
192	0x3d7d3da8	0.061826378
193	0xbc65d40d	-0.014027608
194	0xbc3ebde8	-0.011641957
195	0xbd385db5	-0.04501124
196	0x3c7c17de	0.01538655
197	0x3bba79e6	0.005690801
198	0xbc47614c	-0.0121691935
199	0x3bb54cb3	0.005532825
200	0x3d49b21e	0.04924213
201	0xbd05907d	-0.032608498
202	0xbd00b293	-0.0314203
203	0xb9c6f11a	-0.00037945138
204	0x3b094123	0.0020943366
205	0xbbadff22	-0.005309955
206	0x3d2fbe30	0.042905986
207	0xbd16bf11	-0.03680331
208	0x3c7ce4df	0.0154354265
209	0x3c5b2add	0.013376919
210	0x3cd1038b	0.025514385
211	0xbd61a519	-0.05508909
212	0xbd44724c	-0.047960564
213	0xbc96718d	-0.018364692
214	0x3cff262e	0.031146135
215	0xbdc42b00	-0.09578514
216	0x3a8ab7e3	0.0010583367
217	0xbcb91db0	-0.022597164
218	0xbd1cae0a	-0.038251914
219	0xbd4033b2	-0.0469243
220	0xbc61a972	-0.013773309
221	0x3d927ede	0.07153104
222	0x3cdbe7c1	0.026843907
223	0xbd1fedc1	-0.0390451
224	0xbd0eee35	-0.03489514
225	0xbd191105	-0.037369747
226	0xbc898493	-0.01678685
227	0x3ba386f0	0.004990451
228	0xbb8c017d	-0.0042726384
229	0xbc4aed8a	-0.012385735
230	0xbd1bf171	-0.038072053
231	0x3c8b77f7	0.017024977
232	0x3ba02036	0.0048866523
233	0xbc86d665	-0.016459653
234	0xbd09e2b0	-0.03366345
235	0xbc00053a	-0.007813746
236	0xbd0c4965	-0.034249682
237	0x3b2b8fb9	0.0026178195
238	0x3c9bd6e2	0.019023363
239	0x3b30b1b7	0.0026961395
240	0x3c13be33	0.009017515
241	0xbc68ea53	-0.0142160235
242	0xbc9c7f4d	-0.01910367
243	0xbcfd2b3c	-0.030904405
244	0xbc52a19e	-0.012855915
245	0x3cc48317	0.02398829
246	0x3b3f86d7	0.0029224658
247	0xbd257486	-0.04039433
248	0xbd73e9a8	-0.059549004
249	0x3cd2a8b3	0.025715208
250	0x3c5a6b97	0.0133313155
251	0x3cc50ff4	0.024055459
252	0xbc7a2c97	-0.01526942
253	0x3c38edfb	0.011287208
254	0x3d238d1e	0.0399295
255	0xbc958cc1	-0.018255593

classifier.0.bias f4 [10]
0	0x3ffdffe6	1.9843719
1	0xc00470d8	-2.0693874
2	0xbfff0243	-1.9922565
3	0xbff89973	-1.9421829
4	0x3ffb9f11	1.9657918
5	0xc003f9f4	-2.062131
6	0xbffcf061	-1.9760858
7	0x3ffccefe	1.9750669
8	0xbffab654	-1.9586892
9	0xbff73c43	-1.9315265

classifier.1.weight f4 [1, 10]
0	0x3f03d22e	0.51492584
1	0xbf5eb3ef	-0.86993307
2	0xbf0dcac8	-0.55387545
3	0xbf29ba6c	-0.6630008
4	0x3f319189	0.69362694
5	0xbf209ebe	-0.6274222
6	0xbf3b04d7	-0.7305426
7	0x3f34189d	0.70350057
8	0xbf04b62a	-0.5184046
9	0xbf1210c4	-0.5705683
