Results/Training_6/servo_model.pth (torch_old, 127392 bytes, 7 tensors)

features.0.weight f4 [64, 3, 10, 10]
0.031581 0.0005282059 -0.06393621 0.046767764 -0.0045607314 0.036511667 -0.05794397 0.021412414
-0.046676498 0.028606856 0.045253783 0.034958445 0.006072802 0.017842738 -0.0080275405 0.011957212
-0.0055196485 -0.030580984 -0.010537341 0.029928666 -0.019222602 0.021999476 -0.04963574 0.016832806
-0.057778113 -0.0182633 -0.06514864 -0.06440429 0.0050954595 -0.0088889655 -0.014135642 -0.0069412715
0.04314672 -0.048685536 -0.049774565 0.017864067 0.042868186 -0.0297761 -0.027346784 0.025916537
-0.0030138984 0.045279764 -0.013900497 0.0131388595 -0.05528793 0.008104638 0.016530512 -0.024405446
0.01718231 -0.03463392 -0.012075304 0.016420823 -0.00036300905 0.051555578 -0.009744428 -0.00017608757
-0.032620374 0.00015400311 0.02382618 -0.07046473 -0.02583387 0.014143044 -0.03689201 0.0013761288
-0.06059063 0.04103707 -0.015001779 -0.057058576 0.023030011 -0.016805375 -0.015491467 0.015026724
0.028513337 0.026659794 0.023883091 -0.028929051 -0.0362249 0.020892456 -0.031686034 -0.04751273
0.043130457 0.024054453 -0.04824867 -0.02597016 -0.015467261 0.047081478 0.012169365 -0.025186887
0.013589685 -0.04052075 0.016364465 -0.00041379663 -0.013820389 -0.03261899 0.050785813 -0.01996054
-0.05579575 -0.0034781543 -0.06041901 0.026049567 0.023409162 0.019243762 -0.04489652 -0.013706273
0.021172738 -0.0073750964 0.032224838 0.036362436 0.013883896 -0.0052212058 -0.05371596 0.029467223
0.04000331 0.041240074 0.040257484 0.02516699 0.03587438 -0.055957247 -0.039639913 -0.004854909
-0.03897453 -0.0025251692 -0.005182899 0.029209074 -0.024188986 -0.059614252 -0.038853057 -0.013287539
0.013315641 -0.02613617 0.057428 -0.052218035 0.04707878 -0.040015914 0.04473051 0.022806088
-0.039191928 -0.008036653 0.0006402696 -0.06700488 0.014447619 -0.043777276 -0.05499497 -0.019064872
0.012623834 0.0012072066 -0.01855765 -0.0049781767 0.04200538 -0.031232687 -0.011725488 -0.01957546
0.0244555 -0.03428947 0.056620747 0.030049171 0.030131774 -0.06293797 0.009803939 -0.019801792
-0.0553664 0.04231166 0.008094691 0.050666995 -0.012834508 0.032626472 -0.041326568 -0.015914408
-0.024071638 -0.03692639 -0.016515749 -0.034056723 -0.02145795 0.04641149 0.05289801 0.008434289
-0.05023836 0.004530682 -0.022500264 -0.06543405 -0.037201762 0.007026689 -0.031064643 -0.02405288
0.014786819 -0.05746414 -0.010003397 -0.0336787 -0.04572728 -0.0427159 -0.0031162994 -0.0142958425
0.03840052 -0.038388636 -0.014384323 -0.0461643 -0.035595804 0.011821418 -0.06358509 0.039292883
-0.01035656 -0.06476695 0.02924437 0.0091171935 -0.056410287 0.011313101 0.028728059 -0.026642961
0.007838036 -0.032019712 -0.042267807 -0.027147174 0.04621798 0.013756358 0.0082368925 0.05330329
0.029643772 -0.046842415 0.023263417 -0.0031685745 0.03209043 -0.013163524 0.04744685 -0.03814887
0.016073383 -0.03542883 -0.024060735 0.011201571 0.03676637 -0.0663902 0.020290414 -0.027593797
0.051885087 -0.0046118516 0.006858779 -0.011510331 0.005325667 0.029135827 0.01497531 -0.042941615
0.041927263 -0.036410157 -0.036778558 0.018038655 0.038452927 -0.051853772 -0.01962733 -0.016108397
0.028637968 -0.057924867 -0.05975399 0.043802984 -0.0048111086 0.038451537 -0.025682481 -0.042335648
00000000: 145b 013d 4c77 0a3a fdf0 82bd 8e8f 3f3d
00000010: 3072 95bb 428d 153d a856 6dbd 1669 af3c
00000020: db2f 3fbd ed58 ea3c 085c 393d 9630 0f3d
00000030: 5bfe c63b ef2a 923c f285 03bc 2fe8 433c
00000040: 2bde b4bb f984 fabc d0a4 2cbc f62c f53c
00000050: b878 9dbc 3f38 b43c d94e 4bbd f4e4 893c
00000060: bea8 6cbd eb9c 95bc a66c 85bd 65e6 83bd
00000070: d0f7 a63b 06a3 11bc 2e99 67bc 9b73 e3bb
00000080: 9dba 303d 7c6a 47bd 6ae0 4bbd aa57 923c
00000090: 8d96 2f3d 02ed f3bc 5d06 e0bc eb4e d43c
000000a0: d384 45bb 4677 393d e9be 63bc 5f44 573c
000000b0: 9975 62bd 51c9 043c ff6a 873c eeed c7bc
000000c0: eac1 8c3c 4cdc 0dbd 7fd7 45bc f684 863c
000000d0: 4052 beb9 f12b 533d 18a7 1fbc 26a4 38b9
000000e0: f19c 05bd e57b 2139 1f2f c33c d04f 90bd
000000f0: 8da1 d3bc 3ab8 673c 141c 17bd 385f b43a
00000100: e12d 78bd 7d16 283d 06ca 75bc 41b6 69bd
00000110: 6fa9 bc3c 6dab 89bc eccf 7dbc a632 763c
00000120: cd94 e93c a465 da3c 79a6 c33c 9efc ecbc
00000130: 9060 14bd a826 ab3c 37c9 01bd b59c 42bd
00000140: 90a9 303d d80d c53c 66a0 45bd 5fbf d4bc
00000150: 656a 7dbc 82d8 403d 0462 473c bb54 cebc
00000160: 45a7 5e3c 16f9 25bd c50e 863c d8f2 d8b9
00000170: ea6e 62bc 7d9b 05bd c904 503d 4984 a3bc
00000180: 168a 64bd bff1 63bb ed79 77bd e765 d53c
00000190: 92c4 bf3c 18a5 9d3c 6ae5 37bd 4790 60bc
000001a0: 7372 ad3c cbaa f1bb 31fe 033d c7f0 143d
000001b0: 4879 633c a616 abbb 4405 5cbd 3f65 f13c
000001c0: 83da 233d 5aeb 283d 08e5 243d 012b ce3c
000001d0: 04f1 123d 6d33 65bd 765d 22bd ee15 9fbb
000001e0: c2a3 1fbd 4f7d 25bb 4fd5 a9bb de47 ef3c
000001f0: fb27 c6bc 132e 74bd 6224 1fbd fab3 59bc
00000200: d929 5a3c 851b d6bc 9f39 6b3d 94e2 55bd
00000210: aed5 403d bae7 23bd 5737 373d d5d3 ba3c
00000220: b787 20bd 2aac 03bc c4d7 273a db39 89bd
00000230: b5b5 6c3c cd4f 33bd 6842 61bd ef2d 9cbc
00000240: 33d4 4e3c 223b 9e3a 3606 98bc f91f a3bb
00000250: d50d 2c3d b1db ffbc 431c 40bc b75c a0bc
00000260: e756 c83c 1e73 0cbd 28eb 673d ae29 f63c
00000270: e9d6 f63c 9fe5 80bd b3a0 203c 5e37 a2bc
00000280: e1c7 62bd fe4e 2d3d 989f 043c 3288 4f3d
00000290: d447 52bc 56a3 053d 0c46 29bd ef5e 82bc
000002a0: e231 c5bc 2040 17bd 094c 87bc 107f 0bbd
000002b0: 95c8 afbc f919 3e3d 95ab 583d f92f 0a3c
000002c0: bdc6 4dbd 1e76 943b 7952 b8bc 4a02 86bd
000002d0: e060 18bd 2440 e63b 477b febc 8c0a c5bc
000002e0: 6a44 723c 855f 6bbd 4ae5 23bc adf2 09bd
000002f0: 874c 3bbd def6 2ebd d43a 4cbb 1c39 6abc
00000300: dd49 1d3d 673d 1dbd 39ac 6bbc c716 3dbd
00000310: e8cc 11bd 9fae 413c e638 82bd 93f1 203d
00000320: 90ae 29bc 89a4 84bd e491 ef3c 4860 153c
00000330: 790e 67bd 965a 393c 1b57 eb3c 5742 dabc
00000340: 1b6b 003c 1a27 03bd 0221 2dbd c063 debc
00000350: 114f 3d3d 5962 613c 08f4 063c 8d54 5a3d
00000360: 7fd7 f23c d5dd 3fbd ec92 be3c dca7 4fbb
00000370: 4171 033d d2ab 57bc a157 423d fd41 1cbd
00000380: 54ac 833c d21d 11bd 051b c5bc cb86 373c
00000390: 5598 163d 96f7 87bd 1538 a63c 630c e2bc
000003a0: 7585 543d 041f 97bb 9cbf e03b d495 3cbc
000003b0: ef82 ae3b 42ae ee3c 015b 753c 8ce3 2fbd
000003c0: ecbb 2b3d d122 15bd 1da5 16bd cdc5 933c
000003d0: d180 1d3d 9f64 54bd 7fc9 a0bc c2f5 83bc
000003e0: 2c9a ea3c a042 6dbd 9ac0 74bd c26a 333d
000003f0: 81a6 9dbb 5c7f 1d3d 1164 d2bc 2568 2dbd

features.0.bias f4 [64]
-0.0043737884 0.10412831 -0.024257008 0.2954955 -0.011430202 0.030797852 0.042458855 0.03021392
0.034041636 -0.5048091 0.24887176 0.039402913 0.096556105 0.54251164 0.1138155 -0.85829884
0.023144688 0.08912733 -0.32577407 0.050847005 0.10921621 0.13496765 0.29616022 0.071874596
0.20093189 0.4688459 0.092408 -0.19855711 0.14381228 -0.021534164 -0.023612086 0.016471766
0.10926909 0.13019498 0.08083429 -0.45445508 -0.010176085 -0.46180677 0.09917695 0.28438652
0.08070609 -0.2831072 -0.03832112 -0.029020457 -0.56567496 -0.078959875 0.043949552 -0.39865592
0.12919398 -0.03780695 0.0016786467 0.078432105 -0.037790395 0.10151033 -0.4942757 -0.051579382
-0.49537772 0.39957386 -0.050183125 0.015278765 -0.35648763 0.11801594 0.03297993 0.15732807
00000000: ff51 8fbb 3941 d53d a2b6 c6bc 304b 973e
00000010: be45 3bbc c74b fc3c 56e9 2d3d 2f83 f73c
00000020: 3e6f 0b3d 2b3b 01bf 3dd8 7e3e f364 213d
00000030: 35bf c53d 0be2 0a3f 1a18 e93d 79b9 5bbf
00000040: ee99 bd3c 6488 b63d dccb a6be f344 503d
00000050: c0ac df3d f634 0a3e 50a2 973e fd32 933d
00000060: 17c1 4d3e 920c f03e 6840 bd3d 8e52 4bbe
00000070: 8743 133e 6a68 b0bc 226e c1bc ccef 863c
00000080: 79c8 df3d d551 053e 738c a53d 56ae e8be
00000090: 98b9 26bc f071 ecbe 491d cb3d 1c9b 913e
000000a0: 3c49 a53d 6df3 90be 9bf6 1cbd 4fbc edbc
000000b0: 13d0 10bf b7b5 a1bd 7204 343d a11c ccbe
000000c0: 6d4b 043e 76db 1abd 0906 dc3a 03a1 a03d
000000d0: 1aca 1abd a6e4 cf3d b411 fdbe e744 53bd
000000e0: 26a2 fdbe f294 cc3e d28c 4dbd c953 7a3c
000000f0: 8c85 b6be 57b2 f13d f715 073d 9c1a 213e

features.3.weight f4 [10, 64, 3, 3]
-0.012009259 0.002953426 0.0172686 -0.009209739 0.02595161 0.018075185 0.034383763 0.03656886
0.028557112 -0.063286714 -0.058268033 -0.049507815 0.02392874 0.004068107 -0.04210697 -0.034661632
-0.01712517 -0.019855995 0.021875788 0.030748453 -0.012641942 0.03459129 -0.032059547 0.024252769
0.03605854 0.003455799 -0.0044998266 -0.022117287 -0.118063256 -0.031537153 -0.10271676 0.00412085
0.048208702 0.16645983 0.05991774 0.030372895 0.046093665 0.060950268 -0.07095098 -0.039679352
0.17709039 0.013600992 -0.14843649 0.03728578 -0.05420682 0.03248931 -0.037194584 -0.04008421
0.007378017 -0.024615586 0.026673662 -0.032898653 -0.025388157 0.014708991 -0.024610665 0.00059948897
-0.016244376 -0.03862673 0.004632117 -0.033018187 -0.012311902 -0.0043578167 -0.010756363 -0.027157582
-0.016172847 0.010287954 0.03453303 -0.00043089315 -0.030932248 -0.038894303 -0.0061847265 0.005271326
-0.001759953 0.03932666 0.026660936 -0.014659623 0.00896462 0.0053079533 -0.04139042 0.001702057
0.028552314 0.0921627 -0.01611317 0.08650389 0.008493047 0.005862294 0.015896982 0.090636194
-0.019815424 0.084219486 0.012122586 -0.1161848 0.04494764 0.124367245 0.29967532 0.023892991
0.067205556 0.2335185 0.088424824 0.020074459 0.011405271 0.003690965 0.020646557 -0.04113052
0.023862306 -0.037922658 -0.018456569 0.0136743635 -0.081365794 0.20890073 -0.008566188 0.080012895
-0.117125735 0.0022217145 -0.02086304 0.08393482 0.026554707 -0.00950925 -0.3102048 -0.11370152
-0.016405053 0.25342444 0.1007266 0.035139497 0.24469931 0.14403665 -0.04108593 0.010558131
0.010405867 -0.013590886 -0.016814554 -0.0126224905 -0.02486094 0.029490527 0.023447767 -0.03808327
-0.023618208 -0.028574985 0.03696256 0.014191996 -0.03810066 -0.11771003 -0.09976251 -0.06732109
-0.021642854 -0.014013886 -0.0107686985 -0.020312369 0.020323332 -0.015427861 0.011054696 -0.016890775
-0.03781411 -0.022637662 0.03361641 0.011137897 0.022502212 -0.030977054 0.032390695 0.023876118
-0.004265958 -0.024551125 -0.0074498747 0.008900493 0.12893194 0.15561457 0.026834529 0.025036374
0.15833765 -0.03498599 0.0645566 -0.026625955 0.002839686 -0.016505305 0.011079492 -0.005421352
-0.016971031 0.04178419 0.053112518 0.027687877 -0.013404821 0.0016248301 -0.017609173 -0.031210728
-0.0008021833 0.0069433046 0.0016547387 0.024896866 -0.007585947 -0.024249665 0.009736249 0.014577852
-0.031870972 -0.033643678 0.030192018 0.0030813513 0.0012680736 0.021867432 0.0477434 0.012283813
0.046585687 0.04092525 0.030797169 0.011162953 0.04397191 0.07650789 0.054777343 -0.024781208
0.047391098 0.045539998 0.037300073 -0.018661324 0.025863327 -0.006578823 -0.008572908 -0.0061991108
0.06402952 0.003174282 -0.02192424 0.09498933 -0.056231394 0.06807977 0.061666384 -0.044197634
-0.13819486 0.015193782 -0.017574675 0.10517547 0.04242927 -0.08115508 0.005426173 0.010682235
0.04481418 0.0022565918 0.022481956 0.011457998 0.02388672 0.029014336 0.040096927 0.011166095
-0.0094179865 -0.028065044 0.017247684 0.05379416 -0.16206032 0.055757016 -0.1761435 -0.14983106
-0.0769665 -0.047387086 -0.095961206 0.26196787 -0.013552492 -0.023835 -0.042254515 0.00045823533
00000000: 7cc2 44bc 448e 413b e176 8d3c 72e4 16bc
00000010: 7998 d43c 6912 943c fdd5 0c3d 3bc9 153d
00000020: 9bf0 e93c 779c 81bd 76aa 6ebd b5c8 4abd
00000030: 3406 c43c c14d 853b 5c78 2cbd 5bf9 0dbd
00000040: 164a 8cbc 0aa9 a2bc da34 b33c 2ee4 fb3c
00000050: 2620 4fbc 99af 0d3d df50 03bd bead c63c
00000060: 1fb2 133d b07a 623b 4873 93bb 502f b5bc
00000070: 26cb f1bd 1a2d 01bd 2a5d d2bd 3208 873b
00000080: 7d76 453d 7274 2a3e 4e6c 753d 94d0 f83c
00000090: b6cc 3c3d fda6 793d bf4e 91bd d186 22bd
000000a0: 2f57 353e b2d6 5e3c bcff 17be f9b8 183d
000000b0: f807 5ebd 8313 053d 5959 18bd 572f 24bd
000000c0: 4bc3 f13b a0a6 c9bc b982 da3c bdc0 06bd
000000d0: d3fa cfbc fbfd 703c 4e9c c9bc 0627 1d3a
000000e0: ed12 85bc 1037 1ebd 04c9 973b 143e 07bd
000000f0: dcb7 49bc 04cc 8ebb 753b 30bc 9479 debc
00000100: eb7c 84bc ce8e 283c 8272 0d3d 80e9 e1b9
00000110: a065 fdbc a24f 1fbd 3fa9 cabb 16bb ac3b
00000120: 39ae e6ba fe14 213d 0968 da3c ea2e 70bc
00000130: 57e0 123c 57ee ad3b 0089 29bd 8e17 df3a
00000140: 8be6 e93c ccbf bc3d c4ff 83bc f428 b13d
00000150: 6c26 0b3c 7d18 c03b 633a 823c 789f b93d
00000160: f553 a2bc 447b ac3d d09d 463c 4cf2 edbd
00000170: 041b 383d 41b4 fe3d 0b6f 993e 3cbb c33c
00000180: 11a3 893d 791f 6f3e 1318 b53d 3173 a43c
00000190: 2cdd 3a3c 1ee4 713b f822 a93c 7a78 28bd
000001a0: e27a c33c ca54 1bbd 3b32 97bc 700a 603c
000001b0: 1ca3 a6bd 13ea 553e 3259 0cbc cddd a33d
000001c0: 9edf efbd 2f9a 113b f7e8 aabc 05e6 ab3d
000001d0: 4289 d93c afcc 1bbc 2ad3 9ebe 58dc e8bd
000001e0: e463 86bc d9c0 813e bf49 ce3d 6fee 0f3d
000001f0: 7592 7a3e 587e 133e b849 28bd 03fc 2c3c
00000200: 5f7d 2a3c 4fac 5ebc adbe 89bc 90ce 4ebc
00000210: 2ca9 cbbc 1e96 f13c 8815 c03c 34fd 1bbd
00000220: f97a c1bc 1616 eabc 0e66 173d 8c85 683c
00000230: 700f 1cbd f511 f1bd 4950 ccbd a4df 89bd
00000240: 5b4c b1bc 809a 65bc 326f 30bc 2066 a6bc
00000250: 1e7d a63c 24c5 7cbc c11e 353c 865e 8abc
00000260: f8e2 1abd 9e72 b9bc 5cb1 093d ba7b 363c
00000270: 8f56 b83c 97c3 fdbc 1bac 043d d997 c33c
00000280: 73c9 8bbb 711f c9bc 141e f4bb 60d3 113c
00000290: bc06 043e 6d59 1f3e 16d4 db3c 1519 cd3c
000002a0: 4423 223e 784d 0fbd 4036 843d ad1e dabc
000002b0: 071a 3a3b 2236 87bc c286 353c 99a5 b1bb
000002c0: d506 8bbc e625 2b3d 838c 593d b0d1 e23c
000002d0: e59f 5bbc 40f8 d43a 1d41 90bc a4ad ffbc
000002e0: 9c49 52ba a984 e33b d1e3 d83a 83f4 cb3c
000002f0: 8993 f8bb 3ca7 c6bc ca84 1f3c f1d7 6e3c
00000300: 238b 02bd f4cd 09bd 4055 f73c 7ff0 493b
00000310: 7d35 a63a 5423 b33c 958e 433d 0c42 493c
00000320: a2d0 3e3d 3ca1 273d 584a fc3c d2e4 363c
00000330: e41b 343d 2bb0 9c3d 355e 603d f601 cbbc
00000340: 2b1d 423d 2688 3a3d f6c7 183d a2df 98bc
00000350: 54df d33c 2b93 d7bb 6275 0cbc e921 cbbb
00000360: e921 833d 9d07 503b 779a b3bc c489 c23d
00000370: e452 66bd 686d 8b3d e495 7c3d 9408 35bd
00000380: f482 0dbe 57ef 783c c4f8 8fbc 3d66 d73d
00000390: 50ca 2d3d a234 a6bd 0ace b13b 8a04 2f3c
000003a0: 138f 373d 54e3 133b 142c b83c 54ba 3b3c
000003b0: 15ae c33c 79af ed3c ad3c 243d fff1 363c
000003c0: e64d 1abc aae8 e5bc 044b 8d3c 4457 5c3d
000003d0: 24f3 25be 7861 643d f65e 34be 506d 19be
000003e0: 9da0 9dbd f618 42bd 4f87 c4bd a720 863e
000003f0: 450b 5ebc 9e41 c3bc 1213 2dbd 4e3f f039

features.3.bias f4 [10]
-0.054667283 -0.03563325 0.05201577 0.023507906 0.0602197 0.049288332 0.05785884 -0.032440066
-0.0356565 0.021892795
00000000: cdea 5fbd 2cf4 11bd 7d0e 553d a793 c03c
00000010: efa8 763d 90e2 493d 64fd 6c3d e0df 04bd
00000020: 8d0c 12bd 8558 b33c

classifier.0.weight f4 [10, 640]
-0.031153686 0.05224955 -0.02123759 -0.051013216 -0.069393955 -0.0020791974 0.03356652 0.047411747
-0.017087782 -0.03635149 -0.023195105 -0.033863902 0.02529504 -0.044812623 0.018136133 0.050256956
-0.017391598 -0.014894621 -0.052868694 0.039789665 0.022135612 -0.04139319 0.021309072 -0.039609693
0.041981507 -0.025038809 0.015541455 0.019164639 -0.0018974505 0.024205133 -0.006644417 -0.032803215
-0.062003855 -0.049840868 -0.0213891 -0.012094761 -0.008657773 -0.044238407 -0.017207364 0.037017215
-0.045966905 -0.0498825 -0.010873035 0.03042674 0.03280044 0.0022789515 0.019683382 0.006933221
-0.011654384 0.014758891 0.023827212 -0.025662087 -0.0016462986 0.00025058666 0.031967457 0.021843297
-0.078332655 -0.048096593 -0.03799755 -0.067358814 0.015614644 0.010369864 -0.03769746 0.024443597
-0.015466903 -0.008945852 0.035391133 -0.038557377 0.021438835 -0.03094718 0.03545809 -0.04589518
-0.0063541923 -0.013369412 -0.057250492 0.00467503 -0.027406905 0.022687968 0.056825723 -0.09265737
0.0041996427 -0.016745655 0.024473283 -0.03423606 -0.031682346 -0.021333294 0.017979724 -0.05248564
-0.020461315 0.029980129 0.041151702 0.03269935 0.020373862 0.0095572565 0.0063497685 0.015810441
-0.013818392 0.05115824 0.02545299 -0.012184377 -0.022621278 -0.020403214 -0.014542511 0.049108308
0.02075784 -0.027465647 -0.017789401 0.01169302 -0.06900068 -0.004000325 -0.049607847 -0.011305941
0.04716095 0.015469247 0.06277283 -0.00360597 0.007514494 0.05853451 0.05157182 0.0370143
-0.022495715 0.02230001 0.089634955 0.02273133 0.068048894 0.08683388 0.013157478 0.044237666
-0.053575728 -0.015956776 -0.04625493 -0.028944751 0.052976474 0.05271586 0.012744068 -0.00729348
0.05652651 0.049263254 0.04246592 0.018655453 0.0062025012 -0.0061043394 -0.042634547 0.022992635
0.03912733 7.1860686e-06 -0.039005667 -0.0058232388 0.033683874 0.00079242734 0.032662086 0.029369213
0.0010421076 0.009585109 0.015896115 -0.019603275 0.013707874 0.050179828 0.022967758 -0.010915738
-0.0075305426 -0.00043206467 0.0036094217 0.02263876 -0.0086758165 0.018174985 -0.002808312 -0.014323891
-0.04640996 -0.039326373 -0.047676355 -0.013830718 0.0051673274 -0.022999013 0.036313567 -0.052588027
-0.0054917005 -0.00032404112 -0.04376171 -0.024360873 -0.009426092 -0.031347994 -0.033913944 -0.026887044
-0.012321743 0.043684606 0.0124806175 -0.03417388 -0.046026062 -0.03507255 -0.07472395 -0.036558606
0.059841774 -0.0148002915 -0.007401512 0.00026807806 5.6823334e-05 -0.006155356 -0.033094663 0.026347356
0.030946678 -0.025997289 -0.018229589 -0.022625454 -0.019846143 -0.009360058 0.052735686 -0.021277087
0.009983174 0.0041667265 -0.00089240575 -0.055788513 -0.03091449 -0.0071241707 0.03775183 -0.09239613
-0.025784979 -0.024594955 -0.042538982 -0.03365879 -0.008404614 0.04512426 0.0022373486 -0.021494908
-0.04630151 -0.030175107 0.0038030702 -0.011550899 0.008598454 -0.03182511 -0.033113174 0.009396132
0.0036401781 -0.005451483 -0.03955563 0.023311801 -0.05571528 0.037314426 0.019423295 0.016272048
-0.003609095 -0.0060588717 -0.014161763 -0.04172624 -0.011840034 0.030962564 -0.017550735 -0.02313852
-0.0564053 0.017662715 0.008153204 0.032847494 -0.022177763 0.01907379 0.046141706 0.0030514346
00000000: 0436 ffbc a003 563d 74fa adbc 3cf3 50bd
00000010: 6b1e 8ebd 2543 08bb 0c7d 093d d232 423d
00000020: adfb 8bbc 4de5 14bd a903 bebc e0b4 0abd
00000030: 8b37 cf3c 718d 37bd 3a92 943c 3dda 4d3d
00000040: d378 8ebc 9208 74bc d88c 58bd 7dfa 223d
00000050: be55 b53c e88b 29bd 5d90 ae3c c63d 22bd
00000060: cdf4 2b3d 301e cdbc 96a1 7e3c 29ff 9c3c
00000070: e0b3 f8ba d849 c63c 69b9 d9bb aa5c 06bd
00000080: c1f7 7dbd f025 4cbd 3238 afbc 1b29 46bc
00000090: 55d9 0dbc 5533 35bd 75f6 8cbc 5d9f 173d
000000a0: cb47 3cbd 9851 4cbd d024 32bc 8041 f93c
000000b0: c159 063d 765a 153b 0b3f a13c 1330 e33b
000000c0: 08f2 3ebc 47cf 713c 4931 c33c 4c39 d2bc
000000d0: 9dc8 d7ba 2c61 8339 4ff0 023d b7f0 b23c
000000e0: df6c a0bd ef00 45bd 52a3 1bbd 6bf3 89bd
000000f0: 90d4 7f3c 5de6 293c a768 1abd f03d c83c
00000100: e568 7dbc 9f91 12bc 4bf6 103d 57ee 1dbd
00000110: 7fa0 af3c f184 fdbc 813c 113d 96fc 3bbd
00000120: d436 d0bb 610b 5bbc 7e7f 6abd fe30 993b
00000130: 7284 e0bc 1edc b93c 17c2 683d 26c3 bdbd
00000140: 289d 893b 2f2e 89bc 327c c83c 1c3b 0cbd
00000150: 59c5 01bd 29c3 aebc 374a 933c 2ffb 56bd
00000160: 7d9e a7bc e398 f53c b08e 283d c1ef 053d
00000170: 16e7 a63c 0a96 1c3c b811 d03b e684 813c
00000180: 8966 62bc 4d8b 513d ca82 d03c fba0 47bc
00000190: 4250 b9bc a424 a7bc b643 6ebc cb25 493d
000001a0: 580c aa3c a3ff e0bc 14bb 91bc 1594 3f3c
000001b0: 3b50 8dbd 2915 83bb 9931 4bbd 8e3c 39bc
000001c0: d72b 413d b972 7d3c 0b8f 803d 2352 6cbb
000001d0: 253c f63b e2c1 6f3d f93c 533d 4e9c 173d
000001e0: ef48 b8bc 83ae b63c 8892 b73d 0e37 ba3c
000001f0: 385d 8b3d f6d5 b13d 7692 573c 8e32 353d
00000200: 3972 5bbd c9b7 82bc cf75 3dbd 8b1d edbc
00000210: dcfd 583d 96ec 573d 7fcc 503c 25fe eebb
00000220: 5788 673d 44c8 493d bff0 2d3d 52d3 983c
00000230: 5a3e cb3b e906 c8bb 90a1 2ebd 0d5b bc3c
00000240: fb43 203d dc1f f136 68c4 1fbd ded0 bebb
00000250: 1af8 093d e6ba 4f3a aec8 053d b497 f03c
00000260: 5497 883a dc0a 1d3c 9238 823c 0c97 a0bc
00000270: fe96 603c 5d89 4d3d e126 bc3c ecd7 32bc
00000280: c5c2 f6bb bd86 e2b9 0c8c 6c3b ec74 b93c
00000290: 0325 0ebc b5e3 943c a80b 38bb c1ae 6abc
000002a0: 5f18 3ebd b114 21bd 4848 43bd 3c9a 62bc
000002b0: af52 a93b 6d68 bcbc 89bd 143d 8b66 57bd
000002c0: b9f3 b3bb 10e4 a9b9 7b3f 33bd 7490 c7bc
000002d0: e56f 1abc c166 00bd 59e9 0abd 3842 dcbc
000002e0: 23e1 49bc a1ee 323d 817b 4c3c e9f9 0bbd
000002f0: d385 3cbd 3ca8 0fbd df08 99bd 7abe 15bd
00000300: a61c 753d ec7c 72bc 6288 f2bb d48c 8c39
00000310: 9755 6e38 deb2 c9bb 458e 07bd 69d6 d73c
00000320: e383 fd3c 44f8 d4bc 3856 95bc 0459 b9bc
00000330: 6194 a2bc ee5a 19bc 6001 583d 494d aebc
00000340: 7790 233c 0989 883b 56f0 69ba 7f82 64bd
00000350: 6240 fdbc e071 e9bb aaa1 1a3d 2f3a bdbd
00000360: 053b d3bc 5c7b c9bc 5b3d 2ebd cddd 09bd
00000370: 82b3 09bc 37d4 383d 7ba0 123b 1716 b0bc
00000380: a7a6 3dbd c931 f7bc ee3c 793b fb3f 3dbc
00000390: 88e0 0c3c 0c5b 02bd aea1 07bd 3cf2 193c
000003a0: 0e90 6e3b 5ba2 b2bb 1605 22bd 64f8 be3c
000003b0: b535 64bd 03d7 183d 9a1d 9f3c f54c 853c
000003c0: 9186 6cbb 8089 c6bb bd06 68bc 22e9 2abd
000003d0: b4fc 41bc 34a5 fd3c 8fc6 8fbc fe8c bdbc
000003e0: 3e09 67bd 66b1 903c 0495 053c 188b 063d
000003f0: 24ae b5bc a340 9c3c 16ff 3c3d 94fa 473b

classifier.0.bias f4 [10]
2.345964 -2.4393566 -2.3552995 -2.3083668 2.3327324 -2.4276235 -2.343824 2.3423097
-2.3202147 -2.2949476
00000000: 4624 1640 6b1e 1cc0 3abd 16c0 48bc 13c0
00000010: 7d4b 1540 2f5e 1bc0 3601 16c0 67e8 1540
00000020: 667e 14c0 6ce0 12c0

classifier.1.weight f4 [1, 10]
0.39856607 -0.7740654 -0.4387948 -0.53787035 0.57331914 -0.52622104 -0.61271274 0.58184105
-0.39393902 -0.44130498
00000000: da10 cc3e 2629 46bf b6a9 e0be dfb1 09bf
00000010: 0bc5 123f 6cb6 06bf beda 1cbf 89f3 143f
00000020: 60b2 c9be baf2 e1be
